cnn_v1_state.pth (torch, 52602 bytes, 6 tensors)

conv1.weight f4 [64, 32, 3]
0	0xbe3cef17	-0.1845058
1	0xbd2f3f51	-0.042784993
2	0x3e38643a	0.18006983
3	0xbddb6d6f	-0.10714232
4	0x3e0ba86e	0.1363847
5	0xbcd28d23	-0.025702065
6	0xbec9972d	-0.3937315
7	0x3dde2000	0.10845947
8	0x3d870d52	0.065943375
9	0x3f79453c	0.9737127
10	0xbe178940	-0.1479845
11	0xbe36130a	-0.177807
12	0x3e97188d	0.29510918
13	0xbdae7700	-0.08518791
14	0xbe5f66d8	-0.21816576
15	0xbf030400	-0.5117798
16	0x3dd05716	0.1017286
17	0x3ba9eae1	0.0051854705
18	0x3e549fd1	0.2076409
19	0xbda213fd	-0.07913969
20	0xbe89ce4b	-0.26915202
21	0xbe4cc875	-0.19998343
22	0xbcd6f10f	-0.026237993
23	0xbd18a44e	-0.03726607
24	0xbf60f6b1	-0.8787642
25	0xbdc0da50	-0.0941664
26	0x3d88505f	0.066559546
27	0xbe62c695	-0.22146066
28	0xbdac2f95	-0.08407513
29	0x3cc9d137	0.024635894
30	0xbf581480	-0.8440628
31	0x3e787397	0.24262844
32	0x3e6735be	0.22579095
33	0x3e2b82bc	0.1674909
34	0xbd982193	-0.07428279
35	0x3d89794f	0.06712591
36	0xbf18106c	-0.5940006
37	0x3e812f90	0.252316
38	0xbd30519a	-0.04304657
39	0x3f60ce6b	0.8781497
40	0x3cacd75d	0.021098787
41	0xbc867885	-0.01641489
42	0xbe0e9e64	-0.13927609
43	0xbe101afd	-0.14072795
44	0xbe707bd5	-0.23484738
45	0xbf2a7fb2	-0.666011
46	0x3e07ed1e	0.13274047
47	0xbda7f60d	-0.08201227
48	0x3e804b61	0.2505751
49	0xbe563f22	-0.20922521
50	0xbf144be3	-0.57928294
51	0x3f279f67	0.65477604
52	0x3db1e766	0.08686714
53	0xbe2e7993	-0.17038564
54	0x3e31cefa	0.17364112
55	0xbebbda36	-0.3668992
56	0xbe4b9795	-0.19882043
57	0xbf0394a3	-0.51398677
58	0xbdde2747	-0.10847335
59	0xbe0154d9	-0.12630023
60	0xbf11572a	-0.56773627
61	0x3d5347d2	0.051582165
62	0xbd3b0d72	-0.04566712
63	0x3ff241d7	1.8926343
64	0xbeeb6850	-0.45978022
65	0xbdc82915	-0.09773461
66	0xbf3c4196	-0.73537576
67	0x3da4f418	0.0805437
68	0x3eb7ef52	0.35924774
69	0x3e854d4b	0.26035532
70	0xbcabec4e	-0.020986702
71	0x3d74e146	0.05978515
72	0xbfd4950f	-1.6607989
73	0x3e9384b3	0.2881218
74	0x3ec65d11	0.3874288
75	0xbe580d15	-0.2109874
76	0xbd48f1fe	-0.049058907
77	0x3dcd80b8	0.10034317
78	0x3f27d2b9	0.6555591
79	0xbebdee46	-0.3709585
80	0xbe5f0ae0	-0.21781492
81	0xc01584e6	-2.3362365
82	0xbb0fc497	-0.0021937245
83	0x3f070e55	0.52756244
84	0x3eef5e0c	0.4675144
85	0xbd574999	-0.052560423
86	0x3d6d42a0	0.057924867
87	0xbd01c5bc	-0.031682715
88	0xbc8edc3d	-0.017439002
89	0xbcef8388	-0.029237524
90	0x3f86009b	1.0468935
91	0xbe8214e3	-0.2540656
92	0xbe886d95	-0.26646104
93	0x3f043ff5	0.5166009
94	0xbdcc310c	-0.099702924
95	0x3cf53f2f	0.029937355
96	0xbf70a4db	-0.9400155
97	0x3bce56ad	0.0062969537
98	0x3e31f861	0.17379905
99	0x3f81a66a	1.012891
100	0xbe999cb7	-0.30002376
101	0xbe82ee47	-0.25572416
102	0xbf9e0aca	-1.2347043
103	0xbe00fb4d	-0.12595864
104	0x3b62aedb	0.0034589085
105	0xbead08d7	-0.33795807
106	0x3c463fca	0.012100169
107	0x3ebebe1f	0.37254426
108	0xbf0eabf3	-0.55731124
109	0xbcda2d7c	-0.026633017
110	0x3e72e68b	0.23720758
111	0xbf39b39c	-0.7253969
112	0x3de16d53	0.1100718
113	0x3e3918d8	0.18075883
114	0x3f3b0178	0.73049116
115	0xbe4a76f5	-0.19771941
116	0xbe4d9722	-0.20077184
117	0x3fe9b8ff	1.8259581
118	0xbdfc3951	-0.1231562
119	0x3d5a3a99	0.05327854
120	0x3e3580af	0.1772487
121	0x3d970203	0.073734306
122	0xbc9b9a49	-0.018994467
123	0x3e14a9ea	0.14517942
124	0xbd84911e	-0.064729914
125	0xbe576872	-0.21035936
126	0x3ed53c19	0.41647413
127	0xbe0a4877	-0.13504206
128	0xbbf1b7ee	-0.0073766625
129	0xbf50a356	-0.8149923
130	0xbce31634	-0.027720548
131	0x3d4c74dd	0.049916137
132	0x3d2886fa	0.04114435
133	0xbe1680cd	-0.14697571
134	0xbddce7ef	-0.10786425
135	0x3f4c698a	0.7984854
136	0x3ce3283c	0.027729146
137	0xbe3e3f16	-0.18578753
138	0x3f999d5f	1.2001151
139	0x3e0c9940	0.13730335
140	0x3e015afb	0.12632363
141	0xbf305aeb	-0.6888873
142	0x3cb7d0c1	0.022438409
143	0x3e5fb3e1	0.21845962
144	0x3fb01de2	1.375912
145	0xbe0c8e0b	-0.1372606
146	0xbe07ddbc	-0.13268179
147	0x3e9f840f	0.3115544
148	0x3c3d6191	0.011558906
149	0x3d6a656f	0.05722564
150	0x3c94a9f9	0.018147456
151	0x3d3f692c	0.04673116
152	0xbd953081	-0.07284642
153	0xbeb9fe7d	-0.36326972
154	0xbe4e0bc7	-0.2012168
155	0x3d51ab76	0.05118891
156	0xbf388632	-0.72079766
157	0xbe1d1445	-0.15339763
158	0x3e6f064f	0.2334225
159	0x3f5c6f37	0.861072
160	0xbe9d8da8	-0.30772138
161	0xbe062b0d	-0.1310236
162	0x40010e2f	2.0164907
163	0xbe5b3947	-0.21408568
164	0xbd514fc6	-0.05110147
165	0x3d48a3b3	0.04898424
166	0x3e53079e	0.20608374
167	0x3bfb3984	0.0076667685
168	0x3f08fb17	0.5350813
169	0xbbeb2d9f	-0.0071770693
170	0x3c95b291	0.018273624
171	0xbed0ae28	-0.4075787
172	0xbe39726d	-0.18110056
173	0x3d5510b9	0.0520179
174	0xbf80f3b9	-1.0074378
175	0x3df47471	0.11936272
176	0x3e61f7f8	0.22067249
177	0x3d99909b	0.074982844
178	0xbe64cf0f	-0.22344612
179	0xbe0c9cbf	-0.13731669
180	0xbf9e91f9	-1.2388297
181	0x3ca0719d	0.019585425
182	0x3e389cdd	0.18028589
183	0x3f56a8d7	0.8385138
184	0xbc99a0e7	-0.018753482
185	0x3e1e8251	0.154794
186	0xbd324d17	-0.04353055
187	0x3d04b75d	0.03240143
188	0xbd31caee	-0.04340642
189	0x3dee1955	0.116259255
190	0x3d1b6cf3	0.0379457
191	0x3e0e7e80	0.13915443
192	0x3e86d949	0.2633765
193	0xbe5c8311	-0.21534373
194	0xbd726cb5	-0.059185702
195	0x3f5df320	0.86699104
196	0xbe9bd7fc	-0.3043822
197	0xbd6d8205	-0.057985324
198	0xbe5ed346	-0.21760282
199	0x3dc1db44	0.0946565
200	0x3d58d925	0.05294146
201	0xbd93e943	-0.072222255
202	0x3e8f002d	0.27929822
203	0x3b753056	0.0037412844
204	0x402cdc0f	2.7009313
205	0xbf02a79d	-0.5103701
206	0xbe79ab13	-0.24381666
207	0xbf2e2d0f	-0.68037504
208	0xbdfc61c9	-0.123233385
209	0x3d9cd139	0.076570936
210	0x3ea81526	0.32828635
211	0xbcec5284	-0.02884794
212	0xbe5f99b6	-0.2183598
213	0x3eb2de0e	0.3493504
214	0x3e9ca8a6	0.3059742
215	0x3c8c9509	0.01716091
216	0xbf0205fa	-0.5079037
217	0xbd97624a	-0.07391794
218	0xbda88b1e	-0.082296595
219	0xbcf825da	-0.030291487
220	0xbdeca8e2	-0.11555649
221	0x3d379992	0.04482419
222	0x3f7bb5cb	0.9832427
223	0xbcadeaa8	-0.021230057
224	0xbe257f6d	-0.1616189
225	0xbed3e880	-0.4138832
226	0xbe0a49d6	-0.13504729
227	0xbc9ab75a	-0.018886257
228	0xbd8c0688	-0.06837183
229	0x3d883963	0.06651571
230	0x3dd97935	0.106188215
231	0x3f390517	0.7227339
232	0xbe63926d	-0.22223826
233	0xbe894f6a	-0.268184
234	0xbf39a759	-0.7252098
235	0xbe7f170b	-0.24911134
236	0x3d2f1562	0.042745
237	0x4000ad5a	2.0105805
238	0xbe56c391	-0.2097304
239	0xbeb4efc9	-0.35339192
240	0xbec8b38b	-0.3919948
241	0xbdedf097	-0.116181545
242	0xbdee8ada	-0.116475776
243	0xbed4cf7d	-0.4156455
244	0xbcf2caa5	-0.029637644
245	0xbe2a868a	-0.16652885
246	0x3f18ac50	0.5963793
247	0xbe8656d5	-0.26238123
248	0xbd3de4ca	-0.04636077
249	0x3f4f748d	0.8103722
250	0xbe734412	-0.23756436
251	0xbde0b146	-0.10971312
252	0xbec2e47a	-0.3806494
253	0x3dbc2923	0.09187534
254	0x3e8c3b66	0.27389067
255	0x3e858787	0.26079962

conv1.bias f4 [64]
0	0x40b95cb4	5.7925663
1	0x40d50759	6.657147
2	0x40bd979a	5.924756
3	0x40bbfc42	5.874543
4	0x40d0fada	6.5306215
5	0x40c0c634	6.0241947
6	0x40ab5b60	5.354904
7	0x40a89b7d	5.2689805
8	0x40d0be5e	6.523238
9	0x40bf16ca	5.971532
10	0x409a4b16	4.821666
11	0x40b1a1d0	5.5510025
12	0x40b22d86	5.568057
13	0x40a52f98	5.16206
14	0x409925be	4.785857
15	0x40d74031	6.726586
16	0x40bdd46d	5.932181
17	0x40c65afb	6.198606
18	0x40cbae4b	6.365026
19	0x40a835fb	5.2565894
20	0x40de2303	6.941774
21	0x40a5ee01	5.185303
22	0x40d6675b	6.7001166
23	0x40b85566	5.7604246
24	0x40b15ba8	5.5424385
25	0x40c54685	6.1648583
26	0x40b7b15a	5.7403994
27	0x40c0b88b	6.022527
28	0x40aba79a	5.364209
29	0x40c4badb	6.1478095
30	0x40ac39de	5.382064
31	0x40d3cef9	6.619015
32	0x40c49e7d	6.1443467
33	0x40d2fa35	6.593043
34	0x40c3a315	6.1136575
35	0x409dd7e9	4.932606
36	0x40be6343	5.949617
37	0x40ce3c8d	6.4448915
38	0x40d65ccb	6.6988273
39	0x40a08aed	5.0169587
40	0x40bc8598	5.891308
41	0x40a2b7da	5.084943
42	0x40c77661	6.2332006
43	0x40b1ea96	5.559886
44	0x40b943ce	5.789527
45	0x40bbf2a6	5.87337
46	0x4099d759	4.8075376
47	0x40d82f90	6.755806
48	0x40b16cba	5.5445223
49	0x40b94e81	5.790833
50	0x40b71ce4	5.7222767
51	0x40bde8ee	5.934684
52	0x40abd72b	5.3700156
53	0x40bd8bcd	5.9233155
54	0x40d46cc2	6.638276
55	0x40a210b6	5.06454
56	0x40ac326c	5.381155
57	0x40a86851	5.262734
58	0x40c30698	6.094555
59	0x40ab2023	5.347673
60	0x40bfd74c	5.9950314
61	0x40aef92a	5.4679155
62	0x40ae94c1	5.4556584
63	0x40cc8595	6.3913064

conv2.weight f4 [32, 64, 3]
0	0xbed7ed30	-0.42173147
1	0x3dec833b	0.11548468
2	0x3c8eb68e	0.017421033
3	0xbf9bc314	-1.2168908
4	0x3ea0faaf	0.31441256
5	0x3d551979	0.052026246
6	0x3e73c15a	0.23804227
7	0x3e8953fd	0.2682189
8	0x3cda5709	0.02665283
9	0xbedf1968	-0.4357407
10	0xbdd55277	-0.104161195
11	0x3da17361	0.07883335
12	0xbd22ce3e	-0.03974747
13	0xbdd3c00a	-0.10339363
14	0xbe097755	-0.13424428
15	0xbf20d71f	-0.6282825
16	0xbdb0b52e	-0.08628307
17	0x3b1e5f5a	0.002416572
18	0x3f9cf24a	1.2261441
19	0xbe024fb8	-0.12725723
20	0xbe81c1f0	-0.25343275
21	0xbf660980	-0.89858246
22	0x3dede5b3	0.11616077
23	0xbca704e0	-0.020388067
24	0x3f8bdfe4	1.0927701
25	0xbd70a91d	-0.05875503
26	0xbb3524a0	-0.0027640238
27	0x3e979754	0.29607642
28	0x3c4663d5	0.012108763
29	0x3d873bb6	0.06603186
30	0xbde026dc	-0.10944912
31	0xbde2a75b	-0.11067077
32	0xbe88faf6	-0.26753968
33	0x4046d13d	3.106521
34	0xbf34cd9c	-0.70626235
35	0xbf01b772	-0.5067054
36	0xbeeaddeb	-0.45872435
37	0x3d975357	0.07388943
38	0x3da57239	0.08078427
39	0xbdc6d5c4	-0.09708741
40	0xbe30e77c	-0.17275804
41	0xbde1350b	-0.10996445
42	0xbebb3f6b	-0.36571822
43	0xbd36a235	-0.044588286
44	0xbe70f6bc	-0.23531622
45	0x3f8960be	1.0732648
46	0xbf1002e0	-0.56254387
47	0xbf24dd9b	-0.64400643
48	0xbdc2d855	-0.09513918
49	0x3ed465ec	0.4148401
50	0x3e047123	0.12933783
51	0xbe741d0b	-0.23839204
52	0xbcba5830	-0.02274713
53	0xbe2e70d1	-0.17035224
54	0xbe7b160d	-0.2452013
55	0xbe5f4e8f	-0.21807311
56	0xbda4f6e1	-0.08054901
57	0xbd91ce78	-0.07119459
58	0xbe756825	-0.23965509
59	0xbddb19f0	-0.106983066
60	0xbe553b94	-0.20823509
61	0xbd2a497d	-0.04157399
62	0x3d70700c	0.058700606
63	0xbe9ab664	-0.30217278
64	0x3e9520bc	0.29126537
65	0x3e94d5df	0.2906942
66	0xbf5cccde	-0.862501
67	0x3e2295bc	0.15877432
68	0xbdcbe750	-0.09956229
69	0x3ec9678e	0.39336818
70	0x3d35c55f	0.04437768
71	0x3e10b70e	0.1413233
72	0x3f3fe1c7	0.74953884
73	0xbe5bbbeb	-0.21458404
74	0xbd73c6d1	-0.059515778
75	0x3f8b056a	1.0861027
76	0xbe8a1cbd	-0.2697505
77	0xbe202376	-0.15638527
78	0x3fcd71da	1.605037
79	0xbf131381	-0.57451636
80	0xbecbc00f	-0.39794967
81	0xbc898ff7	-0.01679228
82	0x3de17043	0.1100774
83	0x3de76ce6	0.113000676
84	0x3f059d88	0.521935
85	0xbba35f5d	-0.0049857334
86	0xbe09dffc	-0.1346435
87	0x3f10fe58	0.566381
88	0xbe068791	-0.13137652
89	0xbdab515e	-0.08365129
90	0xbf67a5b4	-0.9048722
91	0x3e72a2b2	0.23694876
92	0x3ced4a6e	0.028966155
93	0x3f3896fe	0.72105396
94	0xbda18aa8	-0.07887775
95	0xbba347e3	-0.004982935
96	0x3e020612	0.12697628
97	0x3cd61d70	0.026137084
98	0x3da88d8a	0.082301214
99	0x4018e750	2.3891182
100	0x3bfd7361	0.0077347015
101	0x3c8e9535	0.017405132
102	0xbf74fad4	-0.95695233
103	0x3ed156f8	0.40886664
104	0x3db53567	0.08848076
105	0x3ed49a05	0.41523758
106	0xbdb822c7	-0.08991008
107	0x39956654	0.00028495735
108	0xbf3cf251	-0.73807245
109	0x3e607825	0.21920832
110	0x3df350f2	0.118806735
111	0xbdfa4ec7	-0.12222057
112	0xbd97ed28	-0.07418281
113	0xbe0f0dbf	-0.13970087
114	0x3ed00e85	0.40636078
115	0xbe47f123	-0.1952558
116	0xbdb66be8	-0.089073
117	0x3ecddedb	0.40209088
118	0xbe4dc90b	-0.20096223
119	0xbdc10e7e	-0.09426592
120	0xbf09c6ea	-0.53819144
121	0x3dc8c82b	0.09803804
122	0x3e194e13	0.14971189
123	0xbe9ce9e3	-0.3064719
124	0x3dbc7c34	0.09203377
125	0xbdc58e22	-0.0964625
126	0x40094dce	2.1453738
127	0xbecca09d	-0.39966288
128	0xbeb8c0d5	-0.3608462
129	0xbe353d73	-0.17699222
130	0xbc99f1d5	-0.018792072
131	0x3e39dc8f	0.18150543
132	0x3f26e1d2	0.65188324
133	0xbecb2200	-0.39674377
134	0xbd76fd03	-0.060299885
135	0x3f18e695	0.5972684
136	0x3d4384f0	0.0477342
137	0xbe506819	-0.2035221
138	0xbca6f429	-0.020380097
139	0xbe53a64e	-0.20668909
140	0x3d7a1992	0.061059542
141	0xbf9bfd42	-1.2186663
142	0x3e91d415	0.28482118
143	0x3e96c267	0.29445192
144	0xbe7b529d	-0.24543233
145	0x3e270f2c	0.16314381
146	0x3cff71ae	0.031182136
147	0xbd4d67a6	-0.050147675
148	0xbe1433b5	-0.1447285
149	0x3da7a338	0.081854284
150	0xbd075e49	-0.0330489
151	0x3ddeaa2a	0.108723
152	0x3e0c4af1	0.13700463
153	0xbf035936	-0.51308
154	0x3e4c49fd	0.199501
155	0x3d93aa3e	0.072102055
156	0xbfb74cdf	-1.4320334
157	0x3f00e20c	0.5034492
158	0x3d9331ec	0.07187256
159	0x3fa69194	1.3013177
160	0x3d8f8bb2	0.07009067
161	0xbe0200fe	-0.12695691
162	0x3fd22a2d	1.6419121
163	0xbf151bdd	-0.5824564
164	0xbec91318	-0.3927238
165	0x3f4152de	0.7551707
166	0xbe10a2d2	-0.14124611
167	0xbe8bdc82	-0.27316672
168	0x3f080c57	0.5314383
169	0x3ce58a9c	0.028020196
170	0x3e7964c0	0.2435484
171	0xbeae066c	-0.33989275
172	0x3e6829bd	0.22672172
173	0xbddb608a	-0.10711773
174	0xbf2ca91b	-0.67445534
175	0x3dce236b	0.10065349
176	0x3cab73b5	0.020929197
177	0xbe8763fe	-0.26443475
178	0x3d7ba764	0.061438933
179	0xbd4239f1	-0.04741854
180	0xbfc12ea9	-1.5092365
181	0x3ec55a45	0.38545433
182	0x3e1f9b27	0.1558653
183	0xbf5ff057	-0.87476104
184	0x3dbd847f	0.09253787
185	0x3d1b3ccd	0.03789978
186	0x407e1cd0	3.9705086
187	0xbf27fe19	-0.656221
188	0xbf08a540	-0.5337715
189	0xbf998052	-1.1992285
190	0x3e2527d4	0.16128474
191	0x3e085ae8	0.13315928
192	0xbe955013	-0.29162654
193	0x3e1d9ea2	0.15392545
194	0xbdc0ec91	-0.094201215
195	0x3fc72747	1.5558861
196	0x3e322b5d	0.17399354
197	0xbd3eff11	-0.04662997
198	0x3fa21eb0	1.2665615
199	0x3cfc7ff2	0.030822728
200	0xbdf0a4f0	-0.11750209
201	0xbf1c8694	-0.6114285
202	0x3c4d8fad	0.012546462
203	0xbd2e2dc6	-0.04252412
204	0xbf0ab9ad	-0.5418957
205	0xbd1ba79c	-0.03800164
206	0xbbfc5647	-0.0077007147
207	0xbfbcf1f2	-1.4761336
208	0x3e7c7c04	0.24656683
209	0x3e25e87c	0.16201967
210	0xbf95c4aa	-1.1700642
211	0x3e65250c	0.22377414
212	0x3ea54cb7	0.3228509
213	0xbea41fd4	-0.32055533
214	0xbd568142	-0.052369364
215	0xbd2ea365	-0.042636294
216	0xbf55e482	-0.835518
217	0x3e5eda42	0.21762946
218	0xbd012086	-0.031525157
219	0xbf015394	-0.50518155
220	0x3e70e41d	0.23524518
221	0x3d62273c	0.055213198
222	0xbf8729ac	-1.0559592
223	0x3d1c1a2a	0.03811089
224	0xbcc888dd	-0.024479324
225	0x3ff27bde	1.8944051
226	0xbd9f75d9	-0.077861495
227	0xbde3986e	-0.11113058
228	0xbe2aacf5	-0.1666754
229	0xbc4d6eb2	-0.012538599
230	0xbdcf000b	-0.1010743
231	0xbea106d7	-0.3145053
232	0x3e4c4e5a	0.19951764
233	0xbdf3013c	-0.1186547
234	0x3e923881	0.28558734
235	0xbe50eb53	-0.20402269
236	0x3a2a80e5	0.0006504192
237	0xbe51e2f9	-0.2049674
238	0xbe03556e	-0.12825558
239	0xbcfbd543	-0.03074134
240	0xbe7a8126	-0.24463329
241	0xbdc3db1b	-0.095632754
242	0x3da674aa	0.08127721
243	0xbf53aa33	-0.8268158
244	0x3e61820e	0.22022268
245	0x3e8fb1ff	0.28065488
246	0xbf072f0a	-0.5280615
247	0x3eb028a1	0.34405997
248	0x3d6eea4d	0.058328915
249	0xbf273651	-0.65317255
250	0xbe08c2cc	-0.13355559
251	0x3daf03c0	0.08545637
252	0x3fbaf008	1.4604502
253	0x3d33c2a5	0.0438868
254	0xbdd5c19f	-0.10437321
255	0xbd8fcea8	-0.070218384

conv2.bias f4 [32]
0	0xbec16908	-0.37775445
1	0xbe8c273d	-0.27373686
2	0xbe0b6832	-0.13613966
3	0xbe41ff4a	-0.18945041
4	0xbe863b56	-0.26217145
5	0xbe35fee0	-0.17773008
6	0xbe70f082	-0.23529246
7	0xbec0bff4	-0.3764645
8	0xbe7a6ed6	-0.24456343
9	0xbea97713	-0.3309866
10	0xbe256a4e	-0.16153833
11	0xbeb5749a	-0.35440522
12	0xbeb5433d	-0.3540286
13	0xbea6c01f	-0.32568452
14	0xbe68b079	-0.22723569
15	0xbea7a13b	-0.32740197
16	0xbe9e38df	-0.30902764
17	0xbec6f1e0	-0.3885641
18	0xbe095c82	-0.13414195
19	0xbea6d9dc	-0.3258809
20	0xbe97ea33	-0.29670867
21	0xbea019e2	-0.31269747
22	0xbeb929f7	-0.3616483
23	0xbecee65f	-0.40410134
24	0xbea0e8ff	-0.31427762
25	0xbe3c3be3	-0.1838222
26	0xbece0efa	-0.402458
27	0xbe8bfc9a	-0.27341157
28	0xbdd8c07c	-0.105835885
29	0xbe449748	-0.19198334
30	0xbe66309a	-0.22479478
31	0xbe312d3c	-0.17302412

fc1.weight f4 [12, 9]
0	0x3decfc4f	0.115715615
1	0xc05fdc02	-3.4978032
2	0xbf8d7620	-1.1051674
3	0xc0898b28	-4.298237
4	0xbf068c43	-0.5255777
5	0xbe1aa05b	-0.15100233
6	0xbdc6a8f8	-0.09700197
7	0xbd87c970	-0.06630218
8	0xbdd3ecfa	-0.10347934
9	0x3da839fd	0.082141854
10	0x3f060999	0.52358395
11	0x3eab1edf	0.3342199
12	0xbe0fc421	-0.14039661
13	0xbdd36d9e	-0.10323642
14	0xbda5668b	-0.08076199
15	0xbcbe0ad6	-0.023198526
16	0xbdb15ebe	-0.08660649
17	0xbdf9f729	-0.12205345
18	0xc01d65b9	-2.4593337
19	0xbfb6eae9	-1.4290439
20	0xc03cb653	-2.9486282
21	0xbfd8ab58	-1.692729
22	0xc003af3a	-2.05757
23	0xbfd6efd5	-1.6791941
24	0xc0034349	-2.0509818
25	0xbfda7039	-1.7065498
26	0xc003ee48	-2.0614185
27	0x3e9299c4	0.2863294
28	0xbfa4733f	-1.284767
29	0xbf4eb7ce	-0.80749214
30	0x3f010ba3	0.5040838
31	0x3eb87b4b	0.36031565
32	0xbe2de726	-0.16982707
33	0x3d94550a	0.072427824
34	0x3e16b490	0.14717317
35	0x3dfe9458	0.12430638
36	0xc015dfe9	-2.3417914
37	0xbfb6080c	-1.4221206
38	0xc03dab3d	-2.9635766
39	0xbfdcd8c6	-1.7253654
40	0xbfe744ea	-1.8067906
41	0xc00a2626	-2.1585784
42	0xbfefda50	-1.8738499
43	0xbff27a04	-1.8943486
44	0xc0045d8f	-2.0682104
45	0xc0187bbf	-2.3825529
46	0xbf9d0a42	-1.2268755
47	0xc03c0c7c	-2.938262
48	0xbfdec8d4	-1.7405038
49	0xbffcfaa4	-1.976399
50	0xbfe6bbac	-1.8026023
51	0xc00564ae	-2.08427
52	0xbfbf2c15	-1.4935328
53	0xc00acb44	-2.1686563
54	0xc00c2259	-2.1895964
55	0xbf93e50a	-1.1554272
56	0xc03666d1	-2.8500254
57	0xbfde3d87	-1.7362527
58	0xc002953b	-2.0403583
59	0xbff1e3dd	-1.8897663
60	0xc0025865	-2.0366452
61	0xbfd464a5	-1.6593214
62	0xc00f0037	-2.234388
63	0xc00f908c	-2.2431974
64	0xbfb6e84f	-1.4289645
65	0xc03152fe	-2.7706904
66	0xbff29e11	-1.8954488
67	0xbfe5f360	-1.7964897
68	0xbfd945b1	-1.6974393
69	0xc006e6bc	-2.107833
70	0xbfca0ac9	-1.5784541
71	0xc0176e6f	-2.3661153
72	0xc01d2df4	-2.4559298
73	0xbfae6acb	-1.3626341
74	0xc02df4dd	-2.7180703
75	0xbfed93c5	-1.8560721
76	0xbff45f1b	-1.9091524
77	0xbfdb8f95	-1.7153193
78	0xc008b265	-2.1358883
79	0xbfdfbc6c	-1.7479377
80	0xc00e44da	-2.2229524
81	0xc019aa70	-2.4010277
82	0xbfacdfa2	-1.3505747
83	0xc038d801	-2.8881838
84	0xbff09696	-1.8795955
85	0xbfe1d706	-1.7643745
86	0xc0084e08	-2.1297626
87	0xbff50917	-1.9143399
88	0xbfc8a553	-1.5675453
89	0xc00709d5	-2.109975
90	0xc01703dd	-2.3596108
91	0xbfae776e	-1.3630197
92	0xc03e0181	-2.9688418
93	0xbfe51e3b	-1.7899851
94	0xbfe67081	-1.8003083
95	0xc00778a7	-2.116739
96	0xbff0ee2a	-1.8822682
97	0xbfd8cfb6	-1.6938388
98	0xc00e4b7e	-2.2233577
99	0xc018b5b2	-2.3860898
100	0xbfa85dae	-1.3153589
101	0xc031f56e	-2.7806048
102	0xbfedb263	-1.8570064
103	0xbff13253	-1.8843483
104	0xbfe477e2	-1.7849085
105	0xc002e79c	-2.0453863
106	0xbfe2dbe4	-1.7723355
107	0xc012a16a	-2.291102

fc1.bias f4 [12]
0	0xc072aaad	-3.7916672
1	0xc120533d	-10.020322
2	0xc0802ff0	-4.0058517
3	0x3e933404	0.28750622
4	0xc07eb53d	-3.979812
5	0xc087245f	-4.22319
6	0xc08a2428	-4.3169136
7	0xc08e83ab	-4.4535728
8	0xc074d126	-3.8252654
9	0xc0756697	-3.8343866
10	0xc07f7323	-3.9914024
11	0xc084775e	-4.139571
