cnn_v4_state.pth (torch, 52538 bytes, 6 tensors)

conv1.weight f4 [64, 32, 3]
000000 82 f4 83 be 49 f8 88 bf e6 db 22 bf 9f fc 87 bf
       -0.25772482 -1.0700771 -0.6361679 -1.0623969
000010 f5 42 1b bf a6 28 7a 3f dc 8f ee bf a1 1e 2f bf
       -0.60649043 0.97718275 -1.8637652 -0.6840611
000020 88 66 27 3e 15 51 bc bd 22 f9 50 3f 31 5c 18 bf
       0.16347706 -0.09195153 0.81630147 -0.5951567
000030 89 a6 95 be f4 ef 59 be f4 f2 ea bd 01 53 2b 3d
       -0.2922862 -0.21282941 -0.11472121 0.041827206
000040 33 d9 d0 be bf de 57 bf 8c d2 4b 3f 3d c9 59 3f
       -0.4079071 -0.8432426 0.79618144 0.8507269
000050 11 f2 40 be 63 b0 00 bf c2 8d df be c5 b5 f8 be
       -0.18842341 -0.50269145 -0.4366284 -0.4857618
000060 f8 e0 44 bf 5b 43 84 be 58 89 7c 3f c1 70 65 bf
       -0.76905775 -0.25832638 0.9864707 -0.89625174
000070 fa 0b c0 3f b0 b0 74 bf 51 31 23 bf 40 9b c1 be
       1.5003655 -0.95582104 -0.63747126 -0.3781376
000080 33 95 c3 3d 04 7f ef 3e fc 73 8f 3f d3 04 0f be
       0.09549942 0.46776593 1.1207271 -0.13966684
000090 24 1a a6 be c0 3b 70 bf 7a d8 61 3d 4d 74 ea 3f
       -0.3244182 -0.9384117 0.05513809 1.8316742
0000a0 a2 0c ce be de d3 23 3e ee 7c 9f bf b5 0c 1e bf
       -0.40244013 0.1599879 -1.246 -0.6173814
0000b0 4b 06 49 3f 12 0a 8f 3f ee b1 72 be 01 e0 c8 be
       0.7852523 1.1174948 -0.23700687 -0.392334
0000c0 56 9f 16 3f 96 4e c6 3f cf 78 c1 be 3e bd 32 bf
       0.5883688 1.5492733 -0.37787482 -0.6982001
0000d0 6e d8 d4 bf 6f 64 f5 bd c0 e3 52 bf b1 14 0d bf
       -1.6628549 -0.11982047 -0.8237877 -0.551097
0000e0 1d e9 84 3c 31 79 13 40 be 9f 3a bf 23 24 60 bf
       0.016224438 2.304272 -0.729 -0.8755514
0000f0 93 f9 c7 3e 46 ed bc 3e c0 bc 5a bf f3 34 5f 3f
       0.39057598 0.36899775 -0.8544426 0.8719017
000100 5e e6 be 3f 67 f6 14 bf fd cb 1d bf 2f 09 8c be
       1.4914052 -0.5818848 -0.61639386 -0.27350757
000110 31 9b 9e be e7 2f c3 be c2 be df 3d 19 af c7 3e
       -0.30977777 -0.38122484 0.10925056 0.39000776
000120 6b 29 87 3f 9c 90 55 3e 07 08 63 3e 47 9e 50 3e
       1.0559515 0.20855945 0.22171031 0.20372878
000130 c2 f6 d6 be 66 57 fa 3d 37 08 3a bf 9b 46 28 bf
       -0.41985136 0.12223701 -0.72668785 -0.65732735
000140 5e 1e 64 3c 7a ff f2 be d7 77 2a be ec 35 48 be
       0.013923256 -0.47460538 -0.16647278 -0.1955182
000150 d8 28 7b 3f b7 48 11 3f 26 f3 31 be cb 69 73 3e
       0.981092 0.5675158 -0.1737791 0.23770826
000160 fe 89 e5 be 2f 71 81 3e 0c 51 45 bf 33 01 20 bf
       -0.44831842 0.25281665 -0.7707679 -0.6250183
000170 90 06 dd be 9c cc ac 3c 26 36 83 be 94 73 6f be
       -0.4316907 0.02109366 -0.2562725 -0.23383933
000180 fb 3e dc bd 82 43 fa bc 06 95 8e 3c 80 30 98 bd
       -0.107542 -0.030549768 0.017405044 -0.07431126
000190 db ec 03 bf 66 42 fb 3d 5f 08 e0 3d 60 d8 27 3e
       -0.5153329 0.12268524 0.10939097 0.16391134
0001a0 6f 57 a8 3c 7f f5 67 3f 29 c5 9e be 79 29 a5 3e
       0.020549504 0.9060897 -0.31009796 0.32258204
0001b0 04 52 1e bf dc 9d 15 bf c7 6e 20 bf 8d 7a 1a bf
       -0.61843896 -0.58444 -0.6266903 -0.6034325
0001c0 2d a5 ef bd cd ad b5 3e 58 92 2a be 25 a8 ce be
       -0.11701427 0.35484162 -0.16657388 -0.4036266
0001d0 2d 60 c3 be b0 64 86 3d 58 92 58 be fd d6 c2 3e
       -0.38159314 0.06562173 -0.21149576 0.38054648
0001e0 54 eb 01 bf de 7b 05 3f d7 6a 3c bb 77 a7 87 3f
       -0.5074971 0.5214213 -0.0028750205 1.0597981
0001f0 ee 16 33 be 25 7c 01 bd fd 59 ce 3e 9f e8 94 be
       -0.17489216 -0.031612534 0.4030303 -0.29083726
000200 ac 9a 3c 3f 38 79 2b 3e e4 f8 86 be 87 75 11 bf
       0.7367351 0.1674546 -0.26361763 -0.5681996
000210 52 46 27 be c8 78 37 3f de 67 87 bf 9f 81 a2 3e
       -0.16335419 0.7166867 -1.0578573 0.31739518
000220 af 8b 50 3e f2 b2 4b bf 73 46 00 41 9e ae 0d c0
       0.20365785 -0.79569924 8.0171995 -2.2137828
000230 d2 4c 10 3d 5a e5 38 3e d0 e2 c4 be 32 2e ec 3e
       0.03522951 0.1805624 -0.38454294 0.46128994
000240 7b 81 36 bf a7 73 2a be 96 f6 7a 3e 1c 82 20 bf
       -0.7129132 -0.1664568 0.24508128 -0.6269853
000250 76 90 3f be 77 72 16 bf a0 27 2c 3e 17 35 74 be
       -0.18707451 -0.5876841 0.1681199 -0.23848377
000260 99 ea 64 3e 46 54 af bf 1d c4 84 be 2f 31 6c 3d
       0.22355117 -1.3697593 -0.25930873 0.057664093
000270 65 f0 79 bf 28 19 5f be bb 9c 1e bf 24 96 a4 be
       -0.9763244 -0.2178694 -0.619579 -0.32145798
000280 b7 46 9f 3e 0c 89 55 3f 33 0a 6d 3e f7 41 85 3e
       0.3110864 0.8341224 0.23148422 0.2602689
000290 dc 32 0f bf 67 47 f0 3e 7e bc 0f 3e 98 f0 19 3f
       -0.5593698 0.46929476 0.14036748 0.6013274
0002a0 54 32 c4 bf 57 53 13 bf db 51 80 3e fd cb 89 be
       -1.5327859 -0.5754904 0.2506245 -0.26913443
0002b0 9c 5f 07 bf a8 fd a8 3d 32 35 1f be 42 b0 bd 3e
       -0.52880263 0.08251506 -0.15547636 0.37048537
0002c0 ca 0a 13 bf e5 6f 12 bf f3 6d 1b be 9d 79 4f be
       -0.5743834 -0.5720199 -0.15178661 -0.20261236
0002d0 9c ce 80 be 9f 7d 6f 3e d0 f2 02 be c5 46 99 bc
       -0.2515763 0.23387764 -0.12787938 -0.018710503
0002e0 54 10 2c 40 c5 43 e3 3d d8 9a a9 be 47 98 c9 3e
       2.6884966 0.110969104 -0.3312595 0.3937399
0002f0 9c e6 e2 3d e7 2a 4b be c1 c8 27 bf d5 d8 3a bd
       0.110791415 -0.19840585 -0.655407 -0.045616943
000300 81 36 89 3f e0 90 60 3e 15 4f d1 bd fc 2c 9b 3e
       1.0719758 0.21930265 -0.10220162 0.30307758
000310 78 4d 08 3f 14 73 41 3e 10 b0 bc bf 8a 40 a8 3e
       0.5324321 0.18891555 -1.474123 0.3286174
000320 d9 0f 86 3e 89 fe 8f 3f 43 4e 99 3e 04 a8 c7 3d
       0.26183966 1.1249553 0.2994252 0.09748843
000330 71 f5 f8 be c3 2a 6f be cd f6 f1 bd 91 72 92 3e
       -0.48624757 -0.23356156 -0.11814652 0.28603032
000340 d3 38 81 be 7e 09 05 bf 03 41 b0 3f d7 93 3a 3f
       -0.25238666 -0.5196761 1.376984 0.72881836
000350 04 c1 d9 bd 20 2c 44 3f fa 8f 2d 3f 21 9a bb bf
       -0.10632518 0.7662983 0.67797816 -1.4656411
000360 cb 70 77 be cc 00 07 3f a1 74 80 bf 3e 7d 95 3d
       -0.24164121 0.5273559 -1.0035592 0.07299279
000370 d1 04 34 3f 95 ec 6a 3e 80 1d 6b bf 9c c6 8a bd
       0.7031985 0.22941811 -0.9184189 -0.06776163
000380 ef 5f 57 be 46 36 4a be 0f 0e a9 bd 54 63 1e 3f
       -0.2103269 -0.19747266 -0.082546346 0.6187031
000390 1f b6 58 3f 10 27 36 be 52 4b 0f 3e e0 a8 2b bf
       0.84652895 -0.17788339 0.13993576 -0.6705456
0003a0 23 e6 9e bf dd 4f 29 3e f0 ad 23 40 db 69 ec bd
       -1.2413982 0.16534372 2.5574913 -0.11543628
0003b0 f8 6f 44 be 67 8f 2b bf ca e3 32 bf 89 09 1d 3d
       -0.19183338 -0.6701569 -0.6987883 0.03833917
0003c0 0d 84 a4 bf c7 40 5f bf 98 24 37 be 38 85 43 3e
       -1.2852799 -0.8720822 -0.17885053 0.19093788
0003d0 ab 64 32 3e c4 10 17 3f 9e 87 91 bf 41 c2 02 be
       0.17421214 0.5900996 -1.1369512 -0.12769414
0003e0 fa ea cc be b7 0c d2 be 4b d5 09 be 35 01 1f bf
       -0.40023023 -0.41025326 -0.13460271 -0.62111217
0003f0 6c 44 38 bf 00 1e 09 bf 1d 71 ed 3e 33 9a 45 bd
       -0.71979403 -0.535614 0.4637536 -0.04824276

conv1.bias f4 [64]
000000 07 25 8b 40 0a 50 c7 40 4e 0a 65 40 28 8d 9c 40
       4.34827 6.2285204 3.578754 4.892231
000010 da ed 5e 40 a7 f9 f4 40 79 39 b4 40 4d e7 77 40
       3.4832673 7.655475 5.6320157 3.8734925
000020 1d 4e a2 40 b3 f0 b5 40 fb 63 d1 40 4a aa 95 40
       5.0720353 5.685632 6.5434546 4.6770372
000030 b4 ea a9 40 1c d1 c5 40 fe f1 6d 40 53 af 9a 40
       5.3099003 6.181776 3.717895 4.833902
000040 c7 04 89 40 a8 6c b4 40 08 92 c9 40 11 d0 92 40
       4.281833 5.6382637 6.299076 4.5878987
000050 c2 64 b0 40 fe 36 c9 40 3d ac a6 40 a5 6f 80 40
       5.5122995 6.287963 5.208525 4.0136285
000060 0b 48 57 40 d0 34 74 40 4e ed 92 40 9f a4 8e 40
       3.3637722 3.8157234 4.591468 4.4575953
000070 6c 96 a7 40 f8 99 7b 40 e7 dd e6 40 a1 9b d2 40
       5.237112 3.9312725 7.2145877 6.5814977
000080 c0 35 9e 40 d8 b4 97 40 2b 14 d5 40 c6 f0 bd 40
       4.9440613 4.7408257 6.658712 5.9356413
000090 f6 4a 98 40 1a f9 9c 40 59 ca cb 40 ca 66 a0 40
       4.7591505 4.905408 6.3684506 5.0125475
0000a0 32 15 d5 40 7b 89 ba 40 ca 22 c9 40 94 ea a8 40
       6.6588373 5.8292823 6.2854967 5.278635
0000b0 fd f5 1b 40 4e 47 bd 40 7b 25 dc 40 63 30 c8 40
       2.436889 5.914954 6.8795753 6.2559066
0000c0 c9 ac 9e 40 7c e5 9e 40 90 a3 4e 40 b1 8d a8 40
       4.958592 4.965513 3.228733 5.2672963
0000d0 7a 45 bb 40 27 35 c4 40 76 4d 8a 40 fb 2f 9e 40
       5.852231 6.1314883 4.3219557 4.943357
0000e0 2d 81 c6 40 6c a4 a3 40 d8 15 e2 40 35 6e c6 40
       6.2032685 5.113821 7.0651665 6.200953
0000f0 67 46 6b 40 77 bf 8a 40 53 4e fe 40 28 ef 8b 40
       3.676172 4.335872 7.947061 4.372944

conv2.weight f4 [32, 64, 3]
000000 21 d2 86 be 73 68 17 be 5b 45 6a be e1 47 e4 be
       -0.2633219 -0.14785938 -0.2287802 -0.4458609
000010 38 3e 22 bf 17 76 01 bf ab a6 19 bf ef ca d0 be
       -0.6337619 -0.50570816 -0.6001994 -0.40779826
000020 62 67 17 be f2 b5 9a 3d 08 1e 23 bd 1a dc f9 be
       -0.14785531 0.075542346 -0.039823562 -0.48800737
000030 8e 85 4d 3e 99 60 b6 3e 66 db 28 bd c3 55 6b be
       0.20070478 0.35620573 -0.04122486 -0.22981934
000040 88 89 b4 bd 6e 53 c6 be ab 3e 22 be d3 df 25 3e
       -0.088152945 -0.38735527 -0.15844218 0.16198663
000050 45 b8 cb be da f3 0c bf 39 60 cc bf 91 5b aa be
       -0.39789024 -0.5505959 -1.5966865 -0.33272985
000060 3b 3f 95 be 6c 6e bb be 3a b2 c4 be 97 9a d2 bd
       -0.29149804 -0.36607683 -0.38417226 -0.10283392
000070 e6 cf 3d 3d f4 0f c7 be 47 67 cd bd a6 8b d1 3d
       0.046340846 -0.3887936 -0.10029464 0.10231714
000080 23 25 25 be 24 b5 10 be 86 eb f0 be e3 7b 52 bd
       -0.16127448 -0.141316 -0.4705469 -0.05138768
000090 f0 52 67 bd 55 dd 5b 3e 97 2f 57 be c4 c8 08 3e
       -0.05647558 0.2147115 -0.21014248 0.13357836
0000a0 7e f2 6a be 34 c6 af 3c 77 00 4d 3e c6 18 32 bd
       -0.22944066 0.021456815 0.20019709 -0.043480657
0000b0 9d 04 83 bd 28 cf 1e be 73 b0 cb be 80 c0 25 be
       -0.06397364 -0.15508711 -0.39783058 -0.16186714
0000c0 2c ba 1f be 61 c7 7a bc ff 79 d7 bd 2b a7 4d 3e
       -0.15598363 -0.015306325 -0.10521316 0.20083301
0000d0 ab a0 4d 3e 00 7f c6 3d f5 9d 08 bf f7 3b a5 be
       0.20080821 0.09692192 -0.53366023 -0.32272312
0000e0 90 e8 67 bd 63 07 ad be a5 26 53 3e 70 54 90 be
       -0.056618273 -0.33794698 0.2062021 -0.2818942
0000f0 fd 8e 14 3f 3b 1c 52 3e af 81 69 be 0f ab af bd
       0.5803068 0.20518582 -0.22803377 -0.08577549
000100 7f 4d 92 be 00 44 80 bd 22 96 aa bd 1e 58 0a 3f
       -0.2857475 -0.0626297 -0.08329417 0.54040706
000110 e6 88 14 be af 8b 76 3e 87 2a aa bc 46 87 9c be
       -0.14505348 0.24076723 -0.020772232 -0.30571955
000120 6e 69 2b 3e ea 6c dd 3e 84 d8 b8 be 6e ab bb 3e
       0.16739437 0.43247157 -0.36102688 0.36654228
000130 e1 7a 21 bb 98 ec d8 3d 33 3d 17 be 99 41 2b 3f
       -0.0024639892 0.10592002 -0.1476944 0.6689697
000140 c6 51 96 3d 2b 5f c9 be 6d 00 53 bf ba 1f 2e bf
       0.07339816 -0.3933042 -0.82422525 -0.6801716
000150 ae 71 0f 3f 0e 6c 16 3f 3a 28 44 bd cb bf 0d 3f
       0.56032836 0.5875863 -0.047889926 0.5537078
000160 c1 0b 4b 3f a3 41 44 be a6 68 09 be 43 45 fb be
       0.7931481 -0.19165663 -0.13418826 -0.4907628
000170 59 b6 e5 bd 4c 62 7d bd 1f 05 8d be bd 89 fa be
       -0.11216421 -0.06186132 -0.2754297 -0.4893321
000180 a5 06 7e 3e 50 08 cb 3e 47 b9 de 3d 6f d5 cf 3c
       0.24807222 0.3965478 0.108751826 0.025370328
000190 4c 70 04 bf 0c 7f 68 3d 7a de 5b bb e1 aa 07 3d
       -0.5173385 0.056761786 -0.0033549354 0.033121947
0001a0 85 bc ce bd 35 52 bd 3d 76 b9 0f 3f c8 ed 46 bd
       -0.10094551 0.09244195 0.56142366 -0.04856661
0001b0 9c de f1 3e 44 d1 ad 3e 0a 11 83 3e 45 05 ae 3e
       0.4724015 0.3394872 0.25598937 0.33988395
0001c0 27 59 07 3f 16 f1 28 bf 37 d9 ca bf 29 ce bf bf
       0.5287041 -0.6599287 -1.5847539 -1.498479
0001d0 6c f7 03 3e 2f 9e 4b bc 35 59 ce bd 44 30 ad be
       0.12887353 -0.012427851 -0.10075609 -0.33825886
0001e0 19 fd c4 3e 27 7f 03 3f bb f5 85 be 01 e8 dc 3d
       0.38474348 0.51365894 -0.2616404 0.10786439
0001f0 b9 c3 a6 3e bc 73 1c bd 0d 7d 33 3c fe 75 f3 3e
       0.325712 -0.03819631 0.010955107 0.47550958
000200 91 cc d8 be aa d4 95 bd 6b 09 20 be b7 7a 4d be
       -0.42343572 -0.07315953 -0.15628593 -0.20066343
000210 ed 6f 1a 3f f5 5a df 3e 78 2c 4e be 41 c1 45 3e
       0.60327035 0.43624082 -0.20134151 0.19312002
000220 3f d5 a1 be 33 5d 0f bf 94 b8 bc 3f 73 84 26 c1
       -0.31608006 -0.56001586 1.4743829 -10.407336
000230 da 3a 24 c0 27 ab 59 3e 2e 62 90 3e 67 79 94 3e
       -2.566092 0.21256696 0.28199905 0.28998873
000240 43 26 08 be 32 09 10 bf 08 40 c6 be 5f 3f 94 be
       -0.13295846 -0.5626403 -0.38720727 -0.28954598
000250 19 7e d6 be 54 75 7b 3d fe 9b 49 bf ec b7 03 bf
       -0.4189308 0.06139119 -0.7875365 -0.5145252
000260 48 7d 15 bf e2 d9 a0 be 7f 2e d9 3e 12 31 95 3d
       -0.5839429 -0.3141623 0.42418286 0.0728475
000270 e2 4b 80 be 9d 9a 59 3d 43 c3 06 3e 57 eb 53 be
       -0.25057894 0.053125966 0.13160424 -0.20695244
000280 1c 3e 9e bd b8 fc 4d be 28 44 5a bf 9b 4f 57 bf
       -0.0772669 -0.20115936 -0.8526025 -0.84105843
000290 3d 97 9f be 2e 42 e4 bd fd 72 09 bf 42 af 48 3e
       -0.31170073 -0.11145435 -0.53691083 0.19598106
0002a0 0a b6 91 bf 58 04 97 bf 29 0f 83 be 03 52 4d be
       -1.1383679 -1.1798201 -0.25597504 -0.20050816
0002b0 91 4a cd be ec 91 41 bf bf a0 27 be 45 7e b6 3c
       -0.40095952 -0.75613284 -0.16369914 0.022277007
0002c0 60 08 73 3d 64 39 92 be 99 c1 b5 be 00 7d e1 be
       0.05933416 -0.2855941 -0.35499266 -0.4404068
0002d0 a5 79 6c be 35 8c 5e bf c6 06 db be 68 60 32 bc
       -0.23093279 -0.8693269 -0.42778605 -0.010887243
0002e0 3b e2 ad bd bf ee eb bd b1 93 8e be 13 46 4d be
       -0.08490416 -0.115201466 -0.27847055 -0.20046262
0002f0 ae 38 1a be d9 30 95 bf 8c 6b 2a bf e4 06 34 3e
       -0.15060684 -1.1655532 -0.66570354 0.17580754
000300 f0 c0 19 3f 01 ef 42 3f f3 55 88 be 8e 11 93 be
       0.60060024 0.7614594 -0.26628074 -0.2872433
000310 96 a2 a9 be 3e f1 89 be db a3 e0 3e da d9 c4 3e
       -0.33131856 -0.26941866 0.43875012 0.38447458
000320 54 60 00 bf 7b 74 af 3e 6e 5c 36 bf c6 29 a4 bd
       -0.50146985 0.34268555 -0.71234787 -0.0801578
000330 6c 51 ae bf 69 32 ae be 81 eb 02 3c 92 76 61 bc
       -1.3618598 -0.34022835 0.007990719 -0.0137611795
000340 7c 71 7b 3e 59 4f ed bd 4e 72 8a bf 19 26 7d be
       0.2455501 -0.115874 -1.0816133 -0.24721564
000350 3d 67 fd bd 9e 4e 44 3f 8a 05 38 3f 4e 1f cb be
       -0.12373207 0.7668246 0.7188345 -0.3967232
000360 20 c2 20 40 58 a4 03 c1 2f f3 4a bf 54 89 de be
       2.5118484 -8.227623 -0.7927732 -0.43464148
000370 c7 d1 82 3c 36 d9 ce bd aa 52 34 3d 26 ae e9 bd
       0.01596917 -0.101000234 0.044024147 -0.11410169
000380 3a 69 f1 be b1 97 1e be 70 da f0 be a8 dc 65 be
       -0.47150594 -0.15487553 -0.47041655 -0.22447455
000390 5d ef c3 3e c7 5d 18 bf 45 ad 13 be c8 c9 f2 be
       0.38268557 -0.5951809 -0.14421566 -0.47419572
0003a0 d0 11 17 bf f1 81 b7 be 95 28 ed bb 23 e4 56 3e
       -0.59011555 -0.35841325 -0.007237504 0.20985465
0003b0 5f 2b b6 be a7 05 d8 3c c0 6b 0e be 52 46 85 be
       -0.35579965 0.026369883 -0.13908291 -0.26030213
0003c0 f0 43 98 bf 46 25 70 bf 00 fd f5 be 54 d8 cb be
       -1.1895733 -0.93806875 -0.48044586 -0.39813483
0003d0 6c d1 94 be cd e2 a5 be 6b 92 84 be b4 31 d6 be
       -0.29066026 -0.32399598 -0.25892958 -0.41834795
0003e0 1d c0 b9 be e5 de 13 bd 7a 50 ad be 81 1b 36 be
       -0.36279383 -0.03610124 -0.3385046 -0.1778393
0003f0 84 8b 85 3d 3a 15 11 bf 70 6a af be 2c c5 fa bd
       0.06520751 -0.56673014 -0.34260893 -0.12244639

conv2.bias f4 [32]
000000 82 7f 8d c0 6d 29 8e c0 4f d9 86 c0 79 4e 8d c0
       -4.421815 -4.442557 -4.214027 -4.415829
000010 5e 91 ac c0 93 57 8b c0 16 cf 9d c0 03 dc 29 c0
       -5.392745 -4.35444 -4.931529 -2.6540534
000020 c4 09 81 c0 63 12 98 c0 29 9e 51 c0 d8 bc 8c c0
       -4.032442 -4.7522445 -3.2752783 -4.398052
000030 3f 07 84 c0 20 36 aa c0 8f 1b 7d c0 09 60 a3 c0
       -4.1258845 -5.319107 -3.954807 -5.105473
000040 66 ce 7a c0 c4 13 46 c0 1e 10 30 c0 41 32 8e c0
       -3.9188476 -3.0949564 -2.7509837 -4.4436345
000050 66 21 87 c0 c8 b4 35 c0 12 77 89 c0 d7 12 18 c0
       -4.222827 -2.839159 -4.295785 -2.37615
000060 bb 91 aa c0 9a f4 14 c0 3c 86 4c c0 ea f2 a2 c0
       -5.3302894 -2.3274293 -3.195693 -5.0921526
000070 a1 df 8b c0 91 05 84 c0 37 49 96 c0 7d 67 99 c0
       -4.3710485 -4.1256795 -4.6964374 -4.793883

fc1.weight f4 [12, 7]
000000 a8 d9 f0 bf 1f d5 85 bf 63 9e e0 bf 4d 1e bc bf
       -1.8816423 -1.0455664 -1.7548336 -1.4696747
000010 e2 7e be bf ad b8 e3 bf df 50 f9 bf 3e 9c c3 bf
       -1.4882472 -1.7790734 -1.9477805 -1.5282056
000020 e6 c7 c8 3f 46 2e 24 bf 32 1a 22 bf 9b a3 ff bd
       1.5686004 -0.6413311 -0.6332122 -0.12482377
000030 65 e5 d3 be 9a e2 91 bf e7 18 33 c0 0c 9d de bf
       -0.41385952 -1.1397278 -2.798395 -1.7391677
000040 4e d6 cf bf 20 e9 d8 bf c4 ca 9a bf d1 c1 dc bf
       -1.6237276 -1.6946144 -1.2093129 -1.7246648
000050 f4 0b e9 bf 69 e4 11 3f 6f 4c 31 bf fe 4a b4 3e
       -1.8206773 0.5698915 -0.69257253 0.35213464
000060 42 d3 19 3f 50 39 ad 3d 8d 3e 5e bf a8 f0 c4 3e
       0.6008798 0.08458197 -0.86814195 0.38464856
000070 bb d0 2e c0 53 30 bf bf a2 8b f1 bf b3 8c b9 bf
       -2.73149 -1.4936622 -1.8870738 -1.4496063
000080 34 08 a5 bf 04 81 c6 bf 72 83 f0 bf 7b 88 2b c0
       -1.2893128 -1.5508122 -1.8790114 -2.680205
000090 b1 d1 d3 bf 5e 27 d9 bf c8 44 d6 bf 4e fa a6 bf
       -1.6548368 -1.6965139 -1.673974 -1.3045137
0000a0 35 b1 b7 bf 2d c9 00 c0 df ee 33 c0 00 91 bb bf
       -1.4350954 -2.0122788 -2.8114545 -1.4653625
0000b0 61 4e f5 bf 69 58 cc bf 82 19 9f bf 5f c8 c6 bf
       -1.9164544 -1.5964481 -1.2429659 -1.5529898
0000c0 76 8e f2 bf 07 87 1a c0 7a 9c c1 bf 5b f7 bd bf
       -1.8949726 -2.4144914 -1.5125878 -1.4841112
0000d0 e1 3d b5 bf 01 d8 95 bf 7f 56 a1 3e 15 cb 16 bf
       -1.4159509 -1.1706544 0.31511304 -0.5890363
0000e0 4e 79 27 c0 4d 41 ac bf db 62 84 bf e6 26 83 bf
       -2.6167789 -1.3457428 -1.0342668 -1.0246246
0000f0 8c 24 26 bf ec f4 47 3f e2 b3 b1 be 75 a1 2b c0
       -0.64899516 0.78108096 -0.34707552 -2.6817296
000100 4a 89 ae bf bd ba be bf 33 29 9c bf 39 75 b0 bf
       -1.3635647 -1.4900738 -1.2200073 -1.3785774
000110 d2 c1 a0 bf 71 81 f9 bf b7 af 2b c0 ff 95 cd bf
       -1.2559149 -1.9492627 -2.6825998 -1.60614
000120 8c 02 cf bf 17 73 bf bf 3b df ba bf a9 5c a0 bf
       -1.6172652 -1.4956998 -1.4599375 -1.2528278
000130 4d eb 03 c0 44 3c 37 c0 49 25 a7 bf 47 a1 04 c0
       -2.0612366 -2.8630533 -1.3058254 -2.0723436
000140 ea 0d 95 bf ee 85 c5 bf e7 32 bf bf 20 ac 03 c0
       -1.1644871 -1.5431497 -1.4937409 -2.0573807

fc1.bias f4 [12]
000000 21 dd 2e c0 bf 16 e7 3e c5 1e b7 c1 1b 66 a6 be
       -2.7322466 0.4513454 -22.890024 -0.32499775
000010 c5 1e b7 c1 c5 1e b7 c1 c5 1e b7 c1 be cd 58 c0
       -22.890024 -22.890024 -22.890024 -3.3875575
000020 be a5 2e c0 50 db 7d c0 c5 1e b7 c1 c5 1e b7 c1
       -2.728866 -3.9665108 -22.890024 -22.890024
