cnn_v2_state.pth (torch, 52538 bytes, 6 tensors)

conv1.weight f4 [64, 32, 3]
000000 d8 f1 83 be 19 f7 88 bf 04 da 22 bf 67 fb 87 bf
       -0.2577045 -1.0700408 -0.63613915 -1.0623597
000010 21 43 1b bf 8b 29 7a 3f be 8f ee bf 50 1e 2f bf
       -0.60649306 0.9771964 -1.8637617 -0.6840563
000020 6b 66 27 3e 04 27 bc bd ab f9 50 3f 55 5c 18 bf
       0.16347663 -0.09187129 0.81630963 -0.5951589
000030 5e a4 95 be 1f f3 59 be bf 07 eb bd be 47 2b 3d
       -0.29226965 -0.2128415 -0.11476087 0.041816466
000040 e1 da d0 be 4a dd 57 bf 12 d5 4b 3f 7c ca 59 3f
       -0.4079199 -0.84322035 0.79621994 0.8507459
000050 86 f4 40 be ed af 00 bf 27 8c df be 3b b2 f8 be
       -0.18843278 -0.5026844 -0.43661615 -0.4857348
000060 e7 e2 44 bf 34 45 84 be f9 89 7c 3f d4 6c 65 bf
       -0.76908726 -0.25834048 0.9864803 -0.89619184
000070 0d 0c c0 3f 00 b6 74 bf 2c 31 23 bf bb 98 c1 be
       1.5003678 -0.9559021 -0.63746905 -0.37811837
000080 b8 93 c3 3d ef 79 ef 3e 0a 74 8f 3f c4 0a 0f be
       0.095496595 0.46772715 1.1207287 -0.1396895
000090 59 19 a6 be 44 3b 70 bf 6d cb 61 3d 51 74 ea 3f
       -0.32441214 -0.9384043 0.055125643 1.8316747
0000a0 a8 0a ce be 27 d4 23 3e 42 7d 9f bf 02 0d 1e bf
       -0.40242505 0.15998898 -1.2460101 -0.617386
0000b0 b5 08 49 3f 7b 09 8f 3f f5 a9 72 be 91 db c8 be
       0.7852891 1.1174768 -0.23697646 -0.39230016
0000c0 52 9f 16 3f 34 4f c6 3f e2 75 c1 be 08 c0 32 bf
       0.58836854 1.5492921 -0.3778525 -0.69824266
0000d0 e0 d8 d4 bf f0 59 f5 bd 49 e4 52 bf a6 15 0d bf
       -1.6628685 -0.11980045 -0.82379586 -0.5511116
0000e0 ef e2 84 3c ff 78 13 40 4e a0 3a bf db 23 60 bf
       0.016221492 2.30426 -0.72900856 -0.8755471
0000f0 6f fb c7 3e 7a eb bc 3e a4 bb 5a bf 8d 38 5f 3f
       0.39059016 0.36898404 -0.85442567 0.87195665
000100 b0 e9 be 3f 86 f3 14 bf 21 cd 1d bf 41 08 8c be
       1.4915066 -0.5818409 -0.61641127 -0.27350047
000110 c1 9a 9e be 48 33 c3 be 40 ab df 3d 5e af c7 3e
       -0.30977443 -0.38125062 0.10921335 0.39000982
000120 4f 2a 87 3f b9 90 55 3e d1 0c 63 3e b3 a9 50 3e
       1.0559787 0.20855989 0.22172858 0.20377235
000130 06 f1 d6 be f9 59 fa 3d 4e 08 3a bf 1f 4a 28 bf
       -0.4198076 0.12224192 -0.7266892 -0.657381
000140 f4 b3 63 3c 20 f7 f2 be 35 71 2a be c3 41 48 be
       0.013897885 -0.47454166 -0.16644748 -0.19556336
000150 90 29 7b 3f ba 48 11 3f ff f5 31 be 07 64 73 3e
       0.98110294 0.56751597 -0.17378996 0.23768626
000160 25 8b e5 be 06 71 81 3e 18 50 45 bf 3e fe 1f bf
       -0.4483272 0.25281543 -0.7707534 -0.6249732
000170 c2 05 dd be a7 1b ad 3c 54 3a 83 be 1e 7f 6f be
       -0.43168455 0.02113135 -0.25630438 -0.23388335
000180 7a 2b dc bd 7d ee f9 bc 74 e7 8e 3c 58 39 98 bd
       -0.1075048 -0.030509228 0.01744435 -0.074328125
000190 df ed 03 bf ba 4f fb 3d 57 15 e0 3d 9e d7 27 3e
       -0.5153484 0.12271066 0.1094157 0.16390845
0001a0 7a 70 a8 3c 04 fd 67 3f c2 b8 9e be 96 25 a5 3e
       0.020561446 0.90620446 -0.31000334 0.32255238
0001b0 b2 52 1e bf a5 9d 15 bf bc 6f 20 bf 0d 7c 1a bf
       -0.61844933 -0.5844367 -0.62670493 -0.60345536
0001c0 39 ba ef bd b1 a9 b5 3e d4 7b 2a be 9a a5 ce be
       -0.11705441 0.35481027 -0.16648799 -0.4036072
0001d0 aa 62 c3 be d2 65 86 3d 9e 95 58 be 76 d3 c2 3e
       -0.38161212 0.065623894 -0.21150824 0.38051957
0001e0 22 ec 01 bf b3 7b 05 3f 94 db 3d bb 90 a8 87 3f
       -0.50750935 0.52141875 -0.002896999 1.0598316
0001f0 be 0d 33 be f6 58 01 bd 83 5d ce 3e 83 ea 94 be
       -0.17485711 -0.03157898 0.4030572 -0.29085168
000200 84 94 3c 3f 9a 76 2b 3e cb f6 86 be ef 77 11 bf
       0.73664117 0.16744462 -0.26360163 -0.5682363
000210 eb 57 27 be 84 78 37 3f 90 67 87 bf c6 84 a2 3e
       -0.16342132 0.7166827 -1.057848 0.31741923
000220 3a 9a 50 3e 92 b1 4b bf 40 46 00 41 73 af 0d c0
       0.20371333 -0.79567826 8.017151 -2.2138336
000230 ad 3e 10 3d 69 d2 38 3e 08 ea c4 be aa 2e ec 3e
       0.035216022 0.18049015 -0.38459802 0.46129352
000240 63 81 36 bf 5a 6b 2a be ed fa 7a 3e 30 83 20 bf
       -0.7129118 -0.16642514 0.24509783 -0.62700176
000250 70 91 3f be 94 71 16 bf 7c 21 2c 3e 0c 3a 74 be
       -0.18707824 -0.58767056 0.16809648 -0.23850268
000260 f2 ec 64 3e 9d 53 af bf ac c6 84 be 71 ea 6b 3d
       0.22356012 -1.3697392 -0.25932825 0.057596628
000270 59 f0 79 bf d0 20 5f be 07 9c 1e bf 39 93 a4 be
       -0.97632366 -0.2178986 -0.6195683 -0.32143572
000280 87 4e 9f 3e ef 8d 55 3f 00 0b 6d 3e 9c 43 85 3e
       0.311146 0.834197 0.23148727 0.26028144
000290 77 32 0f bf 2c 4c f0 3e a7 ba 0f 3e 83 ef 19 3f
       -0.5593638 0.46933115 0.14036046 0.6013109
0002a0 45 32 c4 bf 79 54 13 bf 33 4f 80 3e 90 c9 89 be
       -1.5327841 -0.5755077 0.25060424 -0.26911592
0002b0 82 5e 07 bf 24 07 a9 3d 5c 4a 1f be 9d ac bd 3e
       -0.5287858 0.08253315 -0.1555571 0.37045756
0002c0 45 0f 13 bf f4 6d 12 bf 7c 6d 1b be 95 83 4f be
       -0.57445174 -0.57199025 -0.15178484 -0.20265038
0002d0 97 d1 80 be 5d 80 6f 3e ec eb 02 be 9f 6b 99 bc
       -0.25159904 0.2338881 -0.1278531 -0.018728076
0002e0 fa 0f 2c 40 02 3d e3 3d 1f 9d a9 be 05 99 c9 3e
       2.6884751 0.11095621 -0.33127686 0.39374557
0002f0 89 f1 e2 3d f3 2f 4b be a2 c7 27 bf de 01 3b bd
       0.110812254 -0.1984251 -0.6553899 -0.045656078
000300 cc 36 89 3f 48 96 60 3e 56 48 d1 bd e8 2e 9b 3e
       1.0719848 0.21932328 -0.10218875 0.30309224
000310 c6 4d 08 3f 9c 74 41 3e e1 ae bc bf d4 41 a8 3e
       0.5324367 0.18892139 -1.4740869 0.32862723
000320 f4 11 86 3e ce fe 8f 3f 79 50 99 3e 76 9c c7 3d
       0.26185572 1.1249635 0.29944208 0.097466394
000330 34 f5 f8 be ad 23 6f be d1 ef f1 bd b7 6f 92 3e
       -0.48624575 -0.23353453 -0.118133195 0.28600857
000340 4b 3e 81 be 7c 0a 05 bf d9 42 b0 3f ed 94 3a 3f
       -0.25242838 -0.5196912 1.37704 0.7288349
000350 22 c5 d9 bd a0 2b 44 3f 36 90 2d 3f 58 99 bb bf
       -0.10633303 0.76629066 0.67798173 -1.4656172
000360 4d 69 77 be 54 01 07 3f ac 74 80 bf 3c 7e 95 3d
       -0.24161263 0.527364 -1.0035605 0.07299468
000370 23 04 34 3f 33 e1 6a 3e 53 1d 6b bf 3b b8 8a bd
       0.7031881 0.22937469 -0.9184162 -0.067734204
000380 5d 5e 57 be 82 35 4a be da 03 a9 bd e7 61 1e 3f
       -0.2103209 -0.19746974 -0.08252688 0.6186814
000390 40 b7 58 3f 87 1d 36 be 47 58 0f 3e e9 a6 2b bf
       0.8465462 -0.17784701 0.13998519 -0.6705156
0003a0 a8 e5 9e bf d8 49 29 3e 20 ad 23 40 8c 7e ec bd
       -1.2413836 0.16532075 2.5574417 -0.115475744
0003b0 d5 76 44 be a6 8f 2b bf 51 e5 32 bf ea 1d 1d 3d
       -0.19185956 -0.67016065 -0.6988116 0.038358606
0003c0 87 85 a4 bf 3a 42 5f bf 97 1e 37 be b1 87 43 3e
       -1.2853249 -0.8721043 -0.17882763 0.19094731
0003d0 10 6f 32 3e 2b 12 17 3f b1 87 91 bf 57 c3 02 be
       0.1742518 0.590121 -1.1369535 -0.12769829
0003e0 c5 ea cc be 2c 0f d2 be 72 df 09 be 5a 04 1f bf
       -0.40022865 -0.410272 -0.13464144 -0.62116015
0003f0 3b 42 38 bf 47 1d 09 bf d1 74 ed 3e 06 72 45 bd
       -0.7197606 -0.535603 0.46378186 -0.048204444

conv1.bias f4 [64]
000000 ee 24 8b 40 53 4f c7 40 e0 09 65 40 1d 8d 9c 40
       4.348258 6.228433 3.5787277 4.8922257
000010 36 ed 5e 40 63 f9 f4 40 6e 39 b4 40 7a e7 77 40
       3.4832282 7.6554427 5.6320105 3.8735032
000020 c8 4d a2 40 a1 f0 b5 40 b4 63 d1 40 f6 a9 95 40
       5.071995 5.6856236 6.543421 4.676997
000030 7f ea a9 40 64 d0 c5 40 8f f1 6d 40 c5 ae 9a 40
       5.309875 6.1816883 3.7178686 4.833834
000040 b6 04 89 40 49 6c b4 40 98 91 c9 40 19 d0 92 40
       4.281825 5.6382184 6.2990227 4.5879025
000050 cb 64 b0 40 a9 36 c9 40 61 ac a6 40 71 6f 80 40
       5.512304 6.2879224 5.2085423 4.0136037
000060 a4 48 57 40 dd 34 74 40 66 ed 92 40 da a4 8e 40
       3.3638086 3.8157265 4.5914793 4.4576235
000070 2d 96 a7 40 14 9a 7b 40 be dd e6 40 4c 9b d2 40
       5.237082 3.9312792 7.214568 6.581457
000080 59 35 9e 40 d0 b4 97 40 0c 14 d5 40 d0 f0 bd 40
       4.944012 4.740822 6.658697 5.935646
000090 09 4b 98 40 fb f8 9c 40 59 ca cb 40 74 66 a0 40
       4.7591596 4.905393 6.3684506 5.0125065
0000a0 ef 14 d5 40 14 89 ba 40 43 22 c9 40 4e ea a8 40
       6.6588054 5.829233 6.2854323 5.2786016
0000b0 2a f6 1b 40 23 47 bd 40 d7 24 dc 40 3e 30 c8 40
       2.4368997 5.9149337 6.879497 6.255889
0000c0 aa ac 9e 40 84 e5 9e 40 63 a3 4e 40 6c 8d a8 40
       4.958577 4.965517 3.2287223 5.2672634
0000d0 16 45 bb 40 03 35 c4 40 68 4d 8a 40 b8 2f 9e 40
       5.8521833 6.131471 4.321949 4.943325
0000e0 c9 80 c6 40 a2 a4 a3 40 94 15 e2 40 b3 6d c6 40
       6.203221 5.113847 7.065134 6.200891
0000f0 bb 46 6b 40 58 bf 8a 40 28 4e fe 40 61 ef 8b 40
       3.676192 4.3358574 7.9470406 4.372971

conv2.weight f4 [32, 64, 3]
000000 21 d2 86 be 73 68 17 be 5b 45 6a be e1 47 e4 be
       -0.2633219 -0.14785938 -0.2287802 -0.4458609
000010 38 3e 22 bf 17 76 01 bf ab a6 19 bf ef ca d0 be
       -0.6337619 -0.50570816 -0.6001994 -0.40779826
000020 62 67 17 be f2 b5 9a 3d 08 1e 23 bd 1a dc f9 be
       -0.14785531 0.075542346 -0.039823562 -0.48800737
000030 8e 85 4d 3e 99 60 b6 3e 66 db 28 bd c3 55 6b be
       0.20070478 0.35620573 -0.04122486 -0.22981934
000040 88 89 b4 bd 6e 53 c6 be ab 3e 22 be d3 df 25 3e
       -0.088152945 -0.38735527 -0.15844218 0.16198663
000050 45 b8 cb be da f3 0c bf 39 60 cc bf 91 5b aa be
       -0.39789024 -0.5505959 -1.5966865 -0.33272985
000060 3b 3f 95 be 6c 6e bb be 3a b2 c4 be 97 9a d2 bd
       -0.29149804 -0.36607683 -0.38417226 -0.10283392
000070 e6 cf 3d 3d f4 0f c7 be 47 67 cd bd a6 8b d1 3d
       0.046340846 -0.3887936 -0.10029464 0.10231714
000080 23 25 25 be 24 b5 10 be 86 eb f0 be e3 7b 52 bd
       -0.16127448 -0.141316 -0.4705469 -0.05138768
000090 f0 52 67 bd 55 dd 5b 3e 97 2f 57 be c4 c8 08 3e
       -0.05647558 0.2147115 -0.21014248 0.13357836
0000a0 7e f2 6a be 34 c6 af 3c 77 00 4d 3e c6 18 32 bd
       -0.22944066 0.021456815 0.20019709 -0.043480657
0000b0 9d 04 83 bd 28 cf 1e be 73 b0 cb be 80 c0 25 be
       -0.06397364 -0.15508711 -0.39783058 -0.16186714
0000c0 2c ba 1f be 61 c7 7a bc ff 79 d7 bd 2b a7 4d 3e
       -0.15598363 -0.015306325 -0.10521316 0.20083301
0000d0 ab a0 4d 3e 00 7f c6 3d f5 9d 08 bf f7 3b a5 be
       0.20080821 0.09692192 -0.53366023 -0.32272312
0000e0 90 e8 67 bd 63 07 ad be a5 26 53 3e 70 54 90 be
       -0.056618273 -0.33794698 0.2062021 -0.2818942
0000f0 fd 8e 14 3f 3b 1c 52 3e af 81 69 be 0f ab af bd
       0.5803068 0.20518582 -0.22803377 -0.08577549
000100 7f 4d 92 be 00 44 80 bd 22 96 aa bd 1e 58 0a 3f
       -0.2857475 -0.0626297 -0.08329417 0.54040706
000110 e6 88 14 be af 8b 76 3e 87 2a aa bc 46 87 9c be
       -0.14505348 0.24076723 -0.020772232 -0.30571955
000120 6e 69 2b 3e ea 6c dd 3e 84 d8 b8 be 6e ab bb 3e
       0.16739437 0.43247157 -0.36102688 0.36654228
000130 e1 7a 21 bb 98 ec d8 3d 33 3d 17 be 99 41 2b 3f
       -0.0024639892 0.10592002 -0.1476944 0.6689697
000140 c6 51 96 3d 2b 5f c9 be 6d 00 53 bf ba 1f 2e bf
       0.07339816 -0.3933042 -0.82422525 -0.6801716
000150 ae 71 0f 3f 0e 6c 16 3f 3a 28 44 bd cb bf 0d 3f
       0.56032836 0.5875863 -0.047889926 0.5537078
000160 c1 0b 4b 3f a3 41 44 be a6 68 09 be 43 45 fb be
       0.7931481 -0.19165663 -0.13418826 -0.4907628
000170 59 b6 e5 bd 4c 62 7d bd 1f 05 8d be bd 89 fa be
       -0.11216421 -0.06186132 -0.2754297 -0.4893321
000180 a5 06 7e 3e 50 08 cb 3e 47 b9 de 3d 6f d5 cf 3c
       0.24807222 0.3965478 0.108751826 0.025370328
000190 4c 70 04 bf 0c 7f 68 3d 7a de 5b bb e1 aa 07 3d
       -0.5173385 0.056761786 -0.0033549354 0.033121947
0001a0 85 bc ce bd 35 52 bd 3d 76 b9 0f 3f c8 ed 46 bd
       -0.10094551 0.09244195 0.56142366 -0.04856661
0001b0 9c de f1 3e 44 d1 ad 3e 0a 11 83 3e 45 05 ae 3e
       0.4724015 0.3394872 0.25598937 0.33988395
0001c0 27 59 07 3f 16 f1 28 bf 37 d9 ca bf 29 ce bf bf
       0.5287041 -0.6599287 -1.5847539 -1.498479
0001d0 6c f7 03 3e 2f 9e 4b bc 35 59 ce bd 44 30 ad be
       0.12887353 -0.012427851 -0.10075609 -0.33825886
0001e0 19 fd c4 3e 27 7f 03 3f bb f5 85 be 01 e8 dc 3d
       0.38474348 0.51365894 -0.2616404 0.10786439
0001f0 b9 c3 a6 3e bc 73 1c bd 0d 7d 33 3c fe 75 f3 3e
       0.325712 -0.03819631 0.010955107 0.47550958
000200 91 cc d8 be aa d4 95 bd 6b 09 20 be b7 7a 4d be
       -0.42343572 -0.07315953 -0.15628593 -0.20066343
000210 ed 6f 1a 3f f5 5a df 3e 78 2c 4e be 41 c1 45 3e
       0.60327035 0.43624082 -0.20134151 0.19312002
000220 3f d5 a1 be 33 5d 0f bf 94 b8 bc 3f 73 84 26 c1
       -0.31608006 -0.56001586 1.4743829 -10.407336
000230 da 3a 24 c0 27 ab 59 3e 2e 62 90 3e 67 79 94 3e
       -2.566092 0.21256696 0.28199905 0.28998873
000240 43 26 08 be 32 09 10 bf 08 40 c6 be 5f 3f 94 be
       -0.13295846 -0.5626403 -0.38720727 -0.28954598
000250 19 7e d6 be 54 75 7b 3d fe 9b 49 bf ec b7 03 bf
       -0.4189308 0.06139119 -0.7875365 -0.5145252
000260 48 7d 15 bf e2 d9 a0 be 7f 2e d9 3e 12 31 95 3d
       -0.5839429 -0.3141623 0.42418286 0.0728475
000270 e2 4b 80 be 9d 9a 59 3d 43 c3 06 3e 57 eb 53 be
       -0.25057894 0.053125966 0.13160424 -0.20695244
000280 1c 3e 9e bd b8 fc 4d be 28 44 5a bf 9b 4f 57 bf
       -0.0772669 -0.20115936 -0.8526025 -0.84105843
000290 3d 97 9f be 2e 42 e4 bd fd 72 09 bf 42 af 48 3e
       -0.31170073 -0.11145435 -0.53691083 0.19598106
0002a0 0a b6 91 bf 58 04 97 bf 29 0f 83 be 03 52 4d be
       -1.1383679 -1.1798201 -0.25597504 -0.20050816
0002b0 91 4a cd be ec 91 41 bf bf a0 27 be 45 7e b6 3c
       -0.40095952 -0.75613284 -0.16369914 0.022277007
0002c0 60 08 73 3d 64 39 92 be 99 c1 b5 be 00 7d e1 be
       0.05933416 -0.2855941 -0.35499266 -0.4404068
0002d0 a5 79 6c be 35 8c 5e bf c6 06 db be 68 60 32 bc
       -0.23093279 -0.8693269 -0.42778605 -0.010887243
0002e0 3b e2 ad bd bf ee eb bd b1 93 8e be 13 46 4d be
       -0.08490416 -0.115201466 -0.27847055 -0.20046262
0002f0 ae 38 1a be d9 30 95 bf 8c 6b 2a bf e4 06 34 3e
       -0.15060684 -1.1655532 -0.66570354 0.17580754
000300 37 c4 19 3f 48 f2 42 3f b9 50 88 be 7c 10 93 be
       0.60065025 0.7615094 -0.26624086 -0.28723514
000310 5a 9c a9 be 02 eb 89 be 3d a9 e0 3e aa e0 c4 3e
       -0.331271 -0.2693711 0.4387912 0.38452655
000320 ec 5c 00 bf 05 78 af 3e a9 5a 36 bf 47 20 a4 bd
       -0.5014179 0.34271255 -0.71232086 -0.08013969
000330 6c 51 ae bf a6 2f ae be cd 51 03 3c 92 76 61 bc
       -1.3618598 -0.34020728 0.008015108 -0.0137611795
000340 89 77 7b 3e 3f 43 ed bd 4a 72 8a bf 19 26 7d be
       0.24557318 -0.11585092 -1.0816128 -0.24721564
000350 21 64 fd bd a2 51 44 3f 59 08 38 3f 5e 1e cb be
       -0.12372614 0.7668706 0.7188774 -0.39671606
000360 11 c4 20 40 58 a4 03 c1 09 f2 4a bf cb 88 de be
       2.511967 -8.227623 -0.79275566 -0.4346374
000370 58 0f 83 3c d2 c9 ce bd aa 52 34 3d c0 a3 e9 bd
       0.015998527 -0.10097088 0.044024147 -0.11408186
000380 df 64 f1 be c1 92 1e be f8 d7 f0 be 9a d4 65 be
       -0.4714727 -0.1548567 -0.4703977 -0.22444382
000390 95 f2 c3 3e 2b 5c 18 bf 78 a9 13 be 23 c5 f2 be
       0.38271013 -0.5951564 -0.14420116 -0.47416028
0003a0 c5 0f 17 bf db 7d b7 be 12 d2 eb bb fe f1 56 3e
       -0.5900844 -0.35838208 -0.007196673 0.2099075
0003b0 71 24 b6 be 91 61 d8 3c 7f 68 0e be c7 41 85 be
       -0.35574678 0.02641371 -0.1390705 -0.26026747
0003c0 a4 43 98 bf 77 24 70 bf 63 fb f5 be b3 d7 cb be
       -1.1895642 -0.9380564 -0.48043355 -0.39813003
0003d0 cb d0 94 be d6 e1 a5 be 63 91 84 be 90 2c d6 be
       -0.29065546 -0.32398862 -0.2589217 -0.41830873
0003e0 ee b9 b9 be d9 db 13 bd 18 50 ad be 83 0d 36 be
       -0.36274666 -0.036098335 -0.3385017 -0.17778592
0003f0 3c 96 85 3d 29 13 11 bf 4f 66 af be 65 ae fa bd
       0.065227956 -0.5666986 -0.34257743 -0.12240294

conv2.bias f4 [32]
000000 82 7f 8d c0 67 29 8e c0 4d d9 86 c0 56 4e 8d c0
       -4.421815 -4.442554 -4.214026 -4.4158125
000010 5e 91 ac c0 94 57 8b c0 16 cf 9d c0 06 dc 29 c0
       -5.392745 -4.3544407 -4.931529 -2.6540542
000020 bf 09 81 c0 56 12 98 c0 29 9e 51 c0 da bc 8c c0
       -4.0324397 -4.7522383 -3.2752783 -4.398053
000030 3f 07 84 c0 18 36 aa c0 81 1b 7d c0 0c 60 a3 c0
       -4.1258845 -5.3191032 -3.9548037 -5.1054745
000040 43 ce 7a c0 8c 13 46 c0 1e 10 30 c0 41 32 8e c0
       -3.9188392 -3.094943 -2.7509837 -4.4436345
000050 66 21 87 c0 a7 b4 35 c0 f8 76 89 c0 d7 12 18 c0
       -4.222827 -2.8391511 -4.2957726 -2.37615
000060 bb 91 aa c0 65 f4 14 c0 3c 86 4c c0 ea f2 a2 c0
       -5.3302894 -2.3274167 -3.195693 -5.0921526
000070 a1 df 8b c0 91 05 84 c0 37 49 96 c0 7d 67 99 c0
       -4.3710485 -4.1256795 -4.6964374 -4.793883

fc1.weight f4 [12, 7]
000000 a8 d9 f0 bf 1f d5 85 bf 63 9e e0 bf 4d 1e bc bf
       -1.8816423 -1.0455664 -1.7548336 -1.4696747
000010 e2 7e be bf ad b8 e3 bf 27 52 f9 bf 3e 9c c3 bf
       -1.4882472 -1.7790734 -1.9478196 -1.5282056
000020 e6 c7 c8 3f d0 30 24 bf ad 1f 22 bf 67 bd ff bd
       1.5686004 -0.6413698 -0.63329583 -0.124872975
000030 44 e6 d3 be 83 e8 91 bf e7 18 33 c0 0c 9d de bf
       -0.41386616 -1.1399082 -2.798395 -1.7391677
000040 4e d6 cf bf 20 e9 d8 bf c4 ca 9a bf d1 c1 dc bf
       -1.6237276 -1.6946144 -1.2093129 -1.7246648
000050 f4 0b e9 bf 69 e4 11 3f 6f 4c 31 bf 38 4c b4 3e
       -1.8206773 0.5698915 -0.69257253 0.352144
000060 d1 d6 19 3f e7 49 ad 3d fb 3f 5e bf 6e f5 c4 3e
       0.6009341 0.084613614 -0.86816376 0.38468498
000070 bb d0 2e c0 53 30 bf bf a2 8b f1 bf b3 8c b9 bf
       -2.73149 -1.4936622 -1.8870738 -1.4496063
000080 34 08 a5 bf 04 81 c6 bf 72 83 f0 bf 7b 88 2b c0
       -1.2893128 -1.5508122 -1.8790114 -2.680205
000090 b1 d1 d3 bf 5e 27 d9 bf c8 44 d6 bf 4e fa a6 bf
       -1.6548368 -1.6965139 -1.673974 -1.3045137
0000a0 35 b1 b7 bf 2d c9 00 c0 df ee 33 c0 00 91 bb bf
       -1.4350954 -2.0122788 -2.8114545 -1.4653625
0000b0 61 4e f5 bf 69 58 cc bf 82 19 9f bf 5f c8 c6 bf
       -1.9164544 -1.5964481 -1.2429659 -1.5529898
0000c0 76 8e f2 bf 07 87 1a c0 7a 9c c1 bf c8 f7 bd bf
       -1.8949726 -2.4144914 -1.5125878 -1.4841242
0000d0 4e 3e b5 bf 01 d8 95 bf 03 2a a1 3e 23 e5 16 bf
       -1.4159639 -1.1706544 0.31477365 -0.58943385
0000e0 4e 79 27 c0 4d 41 ac bf 48 63 84 bf 53 27 83 bf
       -2.6167789 -1.3457428 -1.0342798 -1.0246376
0000f0 73 25 26 bf 62 ea 47 3f 13 ce b1 be 75 a1 2b c0
       -0.6490089 0.78092015 -0.34727535 -2.6817296
000100 4a 89 ae bf bd ba be bf 33 29 9c bf 39 75 b0 bf
       -1.3635647 -1.4900738 -1.2200073 -1.3785774
000110 50 c4 a0 bf a6 84 f9 bf b7 af 2b c0 ff 95 cd bf
       -1.255991 -1.9493606 -2.6825998 -1.60614
000120 8c 02 cf bf 17 73 bf bf 3b df ba bf a9 5c a0 bf
       -1.6172652 -1.4956998 -1.4599375 -1.2528278
000130 4d eb 03 c0 44 3c 37 c0 49 25 a7 bf 47 a1 04 c0
       -2.0612366 -2.8630533 -1.3058254 -2.0723436
000140 ea 0d 95 bf ee 85 c5 bf e7 32 bf bf 20 ac 03 c0
       -1.1644871 -1.5431497 -1.4937409 -2.0573807

fc1.bias f4 [12]
000000 04 27 2e c0 aa fb f1 3e c5 1e b7 c1 ed a9 84 be
       -2.7211313 0.47262317 -22.890024 -0.25910893
000010 c5 1e b7 c1 c5 1e b7 c1 c5 1e b7 c1 23 52 55 c0
       -22.890024 -22.890024 -22.890024 -3.3331382
000020 0c 21 2b c0 61 54 77 c0 c5 1e b7 c1 c5 1e b7 c1
       -2.673892 -3.864525 -22.890024 -22.890024
