cnn_v1_state.pth (torch, 52538 bytes, 6 tensors)

conv1.weight f4 [64, 32, 3]
00000000: 85ef c93e f3b2 e6bd 646e 8bbe c3d6 9ebf
00000010: 8850 64bf de2d 243f b18b 08c0 ad00 75bf
00000020: c897 bf3e 2049 e93e 351e 5c3f 8fd5 6abe
00000030: 4775 5ebf eadb 9bbe 7cb1 283c 23fb 6b3e
00000040: 6b14 67bd 367c 6bbe 7aad 583f 990a 0f3f
00000050: 7bfc eebe 1628 2ebf 1781 51bf cbd2 27be
00000060: 88e6 8abf 1576 10bf 0b9d a73e 4034 67be
00000070: a887 e23f d210 a7be 0eb1 7bbf 606e 84be
00000080: 33b7 b03e ab4e 1a3e 1745 403e 869b e5be
00000090: e3aa 35be fc8b 1abf c261 6c3e c42c 0c40
000000a0: e8c4 1a3e 8878 b0be 534c 77bf af9b 1abf
000000b0: 04d3 f93e a5c7 8e3f 6c24 193e 070e 0abd
000000c0: d029 9f3f e8e5 c73f 5bd3 4dbe 3a3c e3be
000000d0: 2970 80bf 9ff6 a0bd 35f8 77be bb80 89be
000000e0: 7830 123c 0940 1140 faf0 c6be 20d4 2fbe
000000f0: 778b 6b3f 5686 223f ebab 13bf d842 9e3e
00000100: a53f a83f 8c6e 08bf 9cd2 bebe deea d43b
00000110: d60c 2bbe 65e5 3dbf 2273 c4be e118 053f
00000120: d106 1b3f 5cea f33e 2d86 063e 6832 9d3c
00000130: a302 dcbe 39b0 4f3e 118e 5bbf 6b02 2abf
00000140: b1dc 423e f641 6abf a3cb 68be 1578 1f3d
00000150: 095d 893f 5d52 373e 26e5 5cbe f82e cabe
00000160: 1cc5 7abf fde1 143d 38b6 f8be 6833 e7be
00000170: 6a27 d13d 39b4 c6be d048 8f3e 3d9a 1ebd
00000180: 485d 3a3d ee8d 533d 0f91 90bd 6a98 cebd
00000190: deca 723e 4b97 973c eb88 983e 43a9 823e
000001a0: 233d c93d 08b7 8c3f 5a0b af3a ca8f 9a3e
000001b0: 1e31 a4be fd77 a0be 5925 1bbd 0fa6 a0be
000001c0: 3616 513e a3e8 0fbe f23f d3bd ebb9 7fbe
000001d0: 2507 30bd 7bab 283e bf5f 0d3d 3384 803e
000001e0: f339 bbbc 974d 813e 7df2 183e 7618 1f3f
000001f0: 95bf da3e bfef 0a3f 554e a53c fca0 8dbe
00000200: 4b9f 373e 1cf8 2e3e a5b3 123e 2a94 10be
00000210: d6da ddbd 34ad 063f 80f9 03bf fcb2 b33e
00000220: 11a5 be3e 6675 edbd 7149 df40 07ae 1ec0
00000230: d813 c1bd 245f 81be b68c c5be 9e88 883e
00000240: 3c9b 6c3d 7481 603d 5006 a7bc f8ba 42bf
00000250: b9c4 753d 0685 1ebe b306 be3e 1c5f 15be
00000260: be7b 2bbd 07b0 6fbf 0915 2f3e f4e7 053d
00000270: b3e4 48bf e31c 90be 33d0 12bf 869e 93be
00000280: b482 2d3e b21e a73d 4562 943c 1c53 1a3d
00000290: c47e 3bbe 3edc dd3d 6739 54be 201f e53e
000002a0: 6a6d 3dbf 8e00 c0be a5da 91bd 3012 49be
000002b0: 07ef 34be 49fc aa3d b148 d2be c80b b93d
000002c0: 613c b4be 3bb6 64bf d941 0f3d d33b 093d
000002d0: b131 b73c 0faf 183f e38a 19be e6a7 2a3e
000002e0: 79cd 2440 63ea 93be ace5 b8be 5130 c43e
000002f0: e01e 8e3e 491a 953e 142e 7cbe 0496 633e
00000300: af7b 783f ad45 38bd be22 20bf 4854 12bf
00000310: e0c0 d5bc 6b9e 643e f318 cebf 50f5 ac3d
00000320: 04a9 863e 4de6 b53f 2e65 443e f222 d0be
00000330: 8d39 95be 85de b8bd 6311 3fbe d50d 203f
00000340: 544b 4ebe bbcd e6be e27f c53f 49ca 933f
00000350: 9857 5ebe 5278 413f 9621 e23e c8f1 89bf
00000360: 0564 3e3f b69c 273f 3d17 acbe 6ecc c03e
00000370: a608 4a3f 2a8a 89be 24e6 74bf 6c41 1e3d
00000380: be53 bcbc b955 04bf 85fe 22bf 1bfc a4bb
00000390: dc59 083f d249 39be 14fe 173e c0b6 5dbf
000003a0: 88d7 65bf 1200 1d3f 2f7d 0e40 b2da 84be
000003b0: 8219 d3be 9e9d 92bf 1573 60bf df46 7f3e
000003c0: c07c 9abf c922 d5be 5412 6c3d 8414 d73e
000003d0: d213 573d f0e5 f93d 803e 99be d010 65bd
000003e0: 18a5 96be f004 50bf ca80 0ebe b799 5d3c
000003f0: 7b64 9bbf eae2 34bf ab2a 933e 9e37 313e
0.3944055 -0.112646006 -0.2723266 -1.240929 -0.8918538 0.6413249 -2.133526 -0.95704156
0.37420487 0.45563602 0.8598359 -0.22933029 -0.868977 -0.3044122 0.010296222 0.2304502
-0.056415956 -0.22996601 0.84639704 0.55875546 -0.46677002 -0.68029916 -0.818376 -0.16389005
-1.0851603 -0.5643018 0.32737002 -0.22578526 1.7697649 -0.3263002 -0.9831704 -0.2586546
0.3451477 0.15069072 0.18776356 -0.44845217 -0.1774097 -0.6036985 0.23084167 2.1902323
0.15114176 -0.34466958 -0.96600837 -0.60393804 0.48793805 1.1154677 0.149553 -0.033704784
1.2434635 1.5617037 -0.20100157 -0.44381887 -1.0034229 -0.07859539 -0.24215777 -0.26856026
0.008922689 2.2695334 -0.38855726 -0.17170763 0.9200968 0.6348623 -0.576842 0.30910373
1.3144423 -0.5329368 -0.37270057 0.006497725 -0.16704115 -0.74178153 -0.3836909 0.5199109
0.60557276 0.4763974 0.13137121 0.019189075 -0.42970762 0.20282067 -0.8576365 -0.6640994
0.190295 -0.915069 -0.22733931 0.03893288 1.0731517 0.17902513 -0.21571788 -0.3948896
-0.97957015 0.03634833 -0.48576522 -0.45156407 0.10212596 -0.38809374 0.2798524 -0.03872131
0.045499116 0.051649027 -0.07058918 -0.100876644 0.237102 0.01850476 0.2979196 0.2551976
0.09826114 1.0993357 0.0013354823 0.30187827 -0.32068723 -0.31341544 -0.037877414 -0.31376693
0.20418629 -0.14053588 -0.10314931 -0.24973266 -0.042975564 0.16471665 0.03451514 0.2510086
-0.02285478 0.2525451 0.14936252 0.621467 0.4272429 0.54272074 0.020178953 -0.27661884
0.17931859 0.17086834 0.14326341 -0.1411902 -0.10832755 0.52608037 -0.5155258 0.35097492
0.3723531 -0.115946576 6.977715 -2.4793718 -0.09427613 -0.252679 -0.38583916 0.2666673
0.05776523 0.054810956 -0.020388752 -0.7606654 0.060002062 -0.15480432 0.37114486 -0.14587063
-0.041866057 -0.9362797 0.17097868 0.03269191 -0.7847397 -0.2814704 -0.57348937 -0.2883188
0.1694439 0.081601515 0.018113265 0.037676916 -0.18310076 0.108330235 -0.20725022 0.4475031
-0.7399508 -0.37500423 -0.07121781 -0.19635844 -0.17669307 0.08348901 -0.41071084 0.0903545
-0.35202315 -0.8934056 0.034974907 0.03350432 0.022362562 0.5964212 -0.14994387 0.1666561
2.575041 -0.2888976 -0.36112726 0.38318112 0.2775793 0.29121616 -0.24626952 0.22225195
0.97063726 -0.044988323 -0.6255301 -0.57159853 -0.026092947 0.22326057 -1.6101364 0.08445227
0.26300824 1.4210907 0.19179222 -0.4065166 -0.2914547 -0.09026817 -0.18658976 0.62521106
-0.20145923 -0.45078835 1.5429652 1.1546108 -0.21713102 0.7557422 0.4416625 -1.0776911
0.7437137 0.65473497 -0.3361148 0.37655967 0.78919446 -0.26863223 -0.95663667 0.03863661
-0.02298915 -0.516933 -0.63669616 -0.005034936 0.53262115 -0.18094566 0.14843017 -0.8660698
-0.89782 0.6132823 2.2263906 -0.259481 -0.41230398 -1.1454351 -0.876756 0.24929379
-1.2069321 -0.416281 0.057634667 0.4200784 0.052509136 0.1220206 -0.29930496 -0.055924237
-0.29422832 -0.81257534 -0.13916317 0.013525418 -1.2140039 -0.70658743 0.2874349 0.17306373

conv1.bias f4 [64]
00000000: bbf4 8840 dac2 9140 9cb8 7740 63b8 8940
00000010: 0ccf 9940 de3c d540 5839 9940 12e3 8e40
00000020: dd08 9e40 d5fc a540 0800 bd40 4bfc 9240
00000030: 0ce2 9e40 3a02 8740 187f 6f40 9822 8e40
00000040: a379 6a40 e490 6f40 ec1f 8840 f7a4 8d40
00000050: f644 b340 2834 aa40 73f9 aa40 0d02 5640
00000060: f27b 7a40 352d 9140 0e3b 9e40 ae80 a440
00000070: b8d6 8640 5687 8040 0852 dc40 3bb6 cc40
00000080: e087 9040 35f7 9e40 cef6 ab40 d83a 9c40
00000090: 5589 a340 15cb 9f40 fd07 9d40 41d3 9e40
000000a0: c693 c240 42c8 b140 bedc 9b40 5282 8a40
000000b0: 1f40 5d40 2e4f c240 407c 9940 e918 bd40
000000c0: 973e 9d40 185b a640 8056 8240 d129 a640
000000d0: 07a1 af40 a644 b140 e70d 8040 c186 8f40
000000e0: c016 ad40 156e 9840 8454 da40 8f2b 8840
000000f0: 0691 8340 3a9b 8b40 532c df40 ec60 8040
4.2798743 4.5550356 3.8706427 4.303758 4.8065243 6.66368 4.78825 4.4652185
4.938582 5.1871133 5.906254 4.5932975 4.9650936 4.219022 3.7421322 4.441723
3.663674 3.7432184 4.2538967 4.4263873 5.602168 5.3188667 5.3429503 3.3438752
3.913815 4.5367684 4.944709 5.140708 4.213711 4.0165205 6.8850136 6.397245
4.5165863 4.9676766 5.3738775 4.882183 5.110514 4.9935403 4.907225 4.963288
6.0805387 5.5556955 4.870696 4.3284082 3.4570386 6.0721655 4.796417 5.909291
4.9138904 5.19862 4.073059 5.1926045 5.4884067 5.53963 4.001697 4.4851995
5.409027 4.7634377 6.822817 4.255317 4.111453 4.3626986 6.9741607 4.0118313

conv2.weight f4 [32, 64, 3]
00000000: 62f3 02bd c43e 1d3e 9107 3d3d 8cfd 3ebe
00000010: e198 cfbe da2b 49be 5c42 cabe e0be c2be
00000020: 6938 ee39 a631 c83e 2125 933e d6e2 6abe
00000030: bdcd b83e 8620 2e3f a2bb 853e a708 26bd
00000040: b8e6 053e db37 91bd ba16 953d 331a ac3e
00000050: 4eb7 f7bd 803e b2be 3fa2 bfbf 8e7a 84be
00000060: a17f 603d 5372 b6bd 7ad4 d8bd 78ea 1b3e
00000070: 6400 bd3e 5ed2 d9bd 4c0d 0f3e b642 be3e
00000080: dcc8 383e 276d d63d 6d0e 05be 9e10 643e
00000090: 1797 0a3e 6263 fc3e e5e2 2c3e 85d4 f43e
000000a0: 66fa 853d 00da 343e fb1a dc3e e27d 633e
000000b0: 3de4 783e 7c76 e73d 7abd 6ebe 1fd3 f03d
000000c0: 5f63 f33c 7809 d33e ba00 1f3e 728c fa3e
000000d0: 8e33 0b3f 7346 473e e196 81be d7a7 82bd
000000e0: d58e aa3e a8bc 21bd 2a99 ce3e 4b61 8dbc
000000f0: db37 583f 5826 063f 8aaf 003c f910 643e
00000100: eaf1 10bd 552d 643e 043c 053e aa9e 5f3f
00000110: 4f9c 433e 551a dc3e 7437 a33e 2632 c13a
00000120: 5e4c c33e 8dbc 383f 61c5 a3bd c3ab 1a3f
00000130: 2d02 9b3e b8a2 993e 4772 fd3d 414c 833f
00000140: 95be cb3e b91f 18be e772 2ebf a7c4 acbe
00000150: 502b 683f 10f6 7a3f fe8c 263e beb6 613f
00000160: f460 8b3f ac1e 143e 34b6 0c3e 560a a5be
00000170: e343 dd3d bff7 903e 8409 433d abda 86be
00000180: 9d63 0e3f de7c 243f cdf6 ee3e 2638 863e
00000190: 979a 22be eb11 bb3e e9a9 803e e218 993e
000001a0: 7cb5 4b3e 8c65 d63e 9747 6a3f 3cd3 8d3e
000001b0: 06de 0c3f 8f8f 463f b826 263f 534f 203f
000001c0: 07c6 623f 774f b5be 5af9 b4bf 8101 abbf
000001d0: e870 da3e 0846 903e ef29 b73d d619 e5bd
000001e0: 59f5 213f f56b 413f 2d6c d2bc 024b 953e
000001f0: bb77 093f 1400 bc3e 2c60 b13e f598 223f
00000200: c7e8 a6be a826 143e dae5 ba3d 1975 1c3e
00000210: 1795 503f 7efd 173f faed b73d 3fc5 043f
00000220: f9ab 0cbd 49b5 82be dc3e e23f b4c3 22c1
00000230: 9ea9 21c0 58c3 ed3e 8dc6 093f 3cfc 023f
00000240: 1671 7b3d e395 9abe 4cca 10bd 83a0 79bd
00000250: fd62 5bbe 9ddc b53e abd6 05bf 820b 50be
00000260: 53d4 b3be 7dfb b9bc 4216 3a3f 7b9f b23e
00000270: 8e31 4c3d 8820 c83e e1cf d23e c45b 303d
00000280: 1b1a 693e 304d b93d f73b 1abf 16ea 09bf
00000290: 92d9 f1bd a2ff 5e3e 7512 afbe d792 003f
000002a0: ccdc 5abf 2d14 7fbf 46c3 6bbd a416 5a3d
000002b0: 6aeb 33be 054f edbe c11d 7d3d 51ef 9c3e
000002c0: 9ddd bd3e b4cc ab3c c1b7 093c 6ad5 5cbe
000002d0: 7ca1 b23d ca34 33bf b6c6 73be 30eb 723e
000002e0: 3d75 133e 3eb5 513e 82d1 ba3d 6f8c 0c3e
000002f0: 7c0b 303e dca2 75bf 2fde eabe f356 cc3e
00000300: 4e4d 6c3f 6397 973f c435 2e3d b46a d1bd
00000310: 5d0f 2a3d 298c 4b3d 7990 1c3f b470 333f
00000320: 5a07 83be 0815 0e3f 3b76 a2be 534d bd3e
00000330: 1048 afbf 3243 5fbd fd5f d13e c832 9f3e
00000340: 1179 063f 576d b23b 1743 45bf 8053 2b3e
00000350: b9d2 123e a280 8b3f c13d 993f ee04 f2bb
00000360: dd30 3d40 36e5 03c1 8c02 1cbf e3ba 82be
00000370: c2f2 b43e 4256 953e e480 883e e72a 7c3e
00000380: c1d0 49be c165 b23e 7479 3abe 66ef 3cbe
00000390: a3b5 193f c3c6 68be 241e f53b d463 9fbd
000003a0: 8a61 99be dbcb 35be 358d b93d c718 113f
000003b0: 1d01 3f3e de87 6f3e 04f2 113e 16d9 ff3d
000003c0: 25a7 64bf 58ca 3abf 7876 a5be 6bb3 e1bd
000003d0: a1b0 16bd d201 063e 3bc3 e63d 70db 98bd
000003e0: 6dd4 adbd 9ecb 563e e4bb 5e3c cc0c d43c
000003f0: 2b12 4d3e e54b 8dbd df9a 4dbd b392 bf3d
-0.03197039 0.15355974 0.046149794 -0.18651408 -0.40546325 -0.19645634 -0.39503753 -0.3803625
0.00045436926 0.3910038 0.28739265 -0.22938094 0.36094466 0.68018377 0.26119715 -0.040535595
0.13076293 -0.07090732 0.072797254 0.33613738 -0.120955095 -0.3481331 -1.4971389 -0.25874752
0.054809216 -0.08908524 -0.10587402 0.15226161 0.3691436 -0.106358275 0.13969916 0.3716027
0.18045372 0.10470038 -0.12993784 0.22271964 0.13534199 0.49294573 0.16883428 0.4781839
0.065419 0.17661285 0.42989334 0.22215989 0.24305816 0.11301896 -0.23314467 0.11759018
0.02971047 0.41218162 0.15527621 0.48935276 0.5437554 0.19460468 -0.25310424 -0.06379669
0.33312097 -0.039486557 0.4035123 -0.017258307 0.8446023 0.5240226 0.007854352 0.222721
-0.035386957 0.22282918 0.13011175 0.8735148 0.19102596 0.4298884 0.31878245 0.0014739677
0.381442 0.72162706 -0.079966314 0.6041834 0.30275097 0.30006957 0.12375312 1.0257646
0.3979384 -0.14855851 -0.6814408 -0.33743784 0.9069109 0.9803171 0.16264722 0.8816947
1.0888963 0.14464825 0.1374138 -0.32234448 0.10803964 0.28314015 0.047616497 -0.26338705
0.5562075 0.6425303 0.4667267 0.26214713 -0.15879284 0.36537108 0.2512963 0.29901797
0.1989345 0.4187435 0.9151549 0.27700222 0.5502628 0.77562803 0.6490283 0.6262104
0.88583416 -0.3541219 -1.4138596 -1.3359834 0.42664266 0.2817843 0.08943545 -0.111865684
0.63264996 0.75555354 -0.025686348 0.2915879 0.5369832 0.3671881 0.34643686 0.63514644
-0.3259947 0.14467871 0.09125872 0.15279044 0.81477493 0.59371173 0.08980937 0.51863474
-0.034343693 -0.25528935 1.7675433 -10.172779 -2.5259776 0.46438098 0.5381859 0.5116613
0.061387144 -0.3019248 -0.035349175 -0.06094409 -0.2142448 0.35519877 -0.5228068 -0.2031689
-0.35122928 -0.022702927 0.7269021 0.348873 0.049851947 0.3908732 0.41174224 0.043056265
0.22763865 0.090479255 -0.6024775 -0.5387281 -0.11809076 0.21777204 -0.3419377 0.5022406
-0.8549316 -0.9964016 -0.057559274 0.053244248 -0.17570272 -0.4634935 0.061795954 0.30651334
0.3708314 0.020971633 0.008405627 -0.21565786 0.08722207 -0.70002425 -0.23806271 0.2372253
0.14400192 0.20479295 0.09121992 0.13725446 0.17191881 -0.9595163 -0.45872638 0.39910087
0.9230546 1.1843075 0.042531744 -0.1022543 0.041518558 0.049694214 0.6115795 0.70093846
-0.25591546 0.5550084 -0.31730828 0.36973056 -1.3693867 -0.05450744 0.40893546 0.3109343
0.5252848 0.005445163 -0.77055496 0.16731071 0.14338197 1.0898631 1.1971971 -0.0073858416
2.9561074 -8.24346 -0.60941386 -0.25533208 0.3534146 0.29167372 0.26660836 0.24625741
-0.1970854 0.34843257 -0.18210393 -0.18450698 0.6004278 -0.22732072 0.0074803997 -0.077827126
-0.2995723 -0.17753546 0.09060136 0.5667843 0.18652768 0.23391673 0.14252478 0.12492578
-0.8931754 -0.72965 -0.32316947 -0.110205494 -0.03678954 0.13086632 0.11267706 -0.074637294
-0.084877826 0.20976111 0.013594601 0.025885008 0.20026462 -0.06899241 -0.050196525 0.093541525

conv2.bias f4 [32]
00000000: f906 7fc0 fae3 7ac0 42b5 72c0 bfb3 7dc0
00000010: f1e6 99c0 bde4 7bc0 4653 8cc0 cf9d 0ec0
00000020: 1354 65c0 2e1a 86c0 b05b 33c0 3854 7fc0
00000030: 9d39 69c0 fbf2 9ec0 e076 60c0 ceaa 92c0
00000040: c0a1 5cc0 89f7 27c0 479b 0ec0 6d90 80c0
00000050: 25ac 71c0 c84d 1dc0 f410 72c0 6fff 01c0
00000060: 11ec 98c0 629d f5bf 8be0 32c0 1aa3 8fc0
00000070: 84bd 7ec0 17da 71c0 39ba 87c0 3e19 8cc0
-3.9848006 -3.9201646 -3.792313 -3.9640958 -4.809441 -3.935836 -4.385165 -2.2283819
-3.5832565 -4.190696 -2.8024712 -3.9895153 -3.6441414 -4.9671607 -3.5072556 -4.58335
-3.4473724 -2.6244833 -2.2282274 -4.01763 -3.7761319 -2.4578724 -3.7822847 -2.0312154
-4.7788167 -1.9188654 -2.794955 -4.48866 -3.980317 -3.7789361 -4.2414823 -4.3780813

fc1.weight f4 [12, 7]
00000000: c7db 27c0 1027 b5bf 4ffc 03c0 425d c6bf
00000010: 0d43 bfbf 87a4 c7bf b0da debf 86c2 debf
00000020: 6774 e03f c1f5 1e3d b230 2e3a 7fe9 5ebc
00000030: 2c2d bd3d 119f c53d 530a 33c0 0290 debf
00000040: 94c5 cfbf dece d8bf 5cab 9abf a8a6 dcbf
00000050: 2abe e8bf 9356 4b3f 142b 63bf 4646 69bd
00000060: 3e7f 2e3e 8e00 f7bd ecbf 99bd ec21 ce3c
00000070: 3fc1 2ec0 a922 bfbf 257b f1bf ac70 b9bf
00000080: f6e5 a4bf 1064 c6bf b838 f0bf 9f78 2bc0
00000090: 31c4 d3bf f816 d9bf b72b d6bf 9ed9 a6bf
000000a0: 3093 b7bf 81a8 00c0 1fe0 33c0 7183 bbbf
000000b0: e53e f5bf 823e ccbf ebf7 9ebf f4aa c6bf
000000c0: 9a44 f2bf 50e1 2ac0 c04a cebf c78a dfbf
000000d0: 7886 c7bf 77b5 bdbf 6a5c b6bf 0654 01c0
000000e0: 5f47 36c0 ac4a debf fef7 d3bf b1b8 b1bf
000000f0: e79f aebf 85cd b2bf 3440 05c0 e46b 32c0
00000100: 9274 d3bf f428 e1bf 5f81 a5bf 9ffa c4bf
00000110: 8eae c1bf 0adf 01c0 dc9f 2bc0 9e87 cdbf
00000120: a9ef cebf 0f58 bfbf 0fbe babf 423d a0bf
00000130: 3fcb 03c0 c22d 37c0 6317 a7bf 5999 04c0
00000140: a6f0 94bf 0965 c5bf ae18 bfbf e18c 03c0
-2.6227891 -1.4152546 -2.0622747 -1.549721 -1.4942337 -1.5597085 -1.7410488 -1.7403114
1.7535523 0.038808588 0.00066448294 -0.0136054745 0.092371315 0.0964948 -2.7975051 -1.7387698
-1.6232171 -1.6938131 -1.2083545 -1.723836 -1.8183033 0.79428977 -0.88737607 -0.056951784
0.17040727 -0.12060653 -0.07507309 0.02516266 -2.7305448 -1.4932452 -1.8865706 -1.448751
-1.2882679 -1.5499287 -1.8767309 -2.6792371 -1.6544248 -1.6960135 -1.6732091 -1.3035161
-1.4341793 -2.0102847 -2.8105543 -1.4649488 -1.9159819 -1.5956576 -1.2419409 -1.5520921
-1.8927186 -2.670002 -1.6116562 -1.7464226 -1.5587912 -1.4821004 -1.4246953 -2.0207534
-2.8481061 -1.7366538 -1.6560056 -1.3884488 -1.3642548 -1.396897 -2.0820436 -2.7878351
-1.651995 -1.7590623 -1.2930106 -1.5388983 -1.5131395 -2.0292382 -2.681632 -1.6057012
-1.6166888 -1.4948748 -1.4589251 -1.2518694 -2.0592802 -2.8621678 -1.3054012 -2.0718596
-1.163594 -1.5421458 -1.4929407 -2.0554736

fc1.bias f4 [12]
00000000: 08a9 4dc1 7496 a940 214b 5ac1 d5cc 54c1
00000010: 9667 5ac1 c760 5ac1 a353 5ac1 1231 5ac1
00000020: 94ed 59c1 6f21 5ac1 e36e 5ac1 dd41 5ac1
-12.853767 5.299616 -13.643342 -13.300008 -13.65029 -13.648627 -13.645419 -13.63698
-13.620502 -13.6331625 -13.652072 -13.64108
