cnn_v3_state.pth (torch, 52538 bytes, 6 tensors)

conv1.weight f4 [64, 32, 3]
0	0x3ecc50d9	0.39905432
1	0xbdccb67a	-0.09995742
2	0xbe86dee9	-0.26341942
3	0xbf9c18e4	-1.2195096
4	0xbf6012c4	-0.87528634
5	0x3f24e67d	0.644142
6	0xc0050cda	-2.0789094
7	0xbf6d3f7d	-0.92675
8	0x3eceaf53	0.40368137
9	0x3ee87b76	0.45406693
10	0x3f5db9a0	0.86611366
11	0xbe6dbcd9	-0.23216571
12	0xbf566209	-0.8374334
13	0xbe958c7b	-0.2920874
14	0x3cee8d8d	0.029120231
15	0x3e65e9af	0.22452424
16	0xbd74f5b6	-0.05980464
17	0xbe67453d	-0.22585006
18	0x3f57c2fb	0.8428189
19	0x3f0e9556	0.5569662
20	0xbef088cf	-0.46979377
21	0xbf2ab382	-0.6668016
22	0xbf4df310	-0.8044901
23	0xbe13d86c	-0.14438027
24	0xbf87b8f8	-1.0603323
25	0xbf0e5958	-0.5560508
26	0x3eb207fc	0.34771717
27	0xbe67cc96	-0.22636637
28	0x3fe00dbd	1.7504193
29	0xbeb3ba74	-0.3510319
30	0xbf74d5d4	-0.95638776
31	0xbe755857	-0.2395948
32	0x3ebab4a8	0.36465955
33	0x3e1fb682	0.15596965
34	0x3e39adaf	0.18132661
35	0xbee5b493	-0.4486433
36	0xbe3545ba	-0.1770238
37	0xbf1819ee	-0.59414566
38	0x3e7058d5	0.23471387
39	0x4009b6cf	2.1517828
40	0x3e15e2d1	0.14637305
41	0xbeb63767	-0.35589144
42	0xbf74a8bf	-0.95569986
43	0xbf197110	-0.59938145
44	0x3f01f9d7	0.5077185
45	0x3f8d651e	1.1046484
46	0x3e25621a	0.16150704
47	0xbd5949ca	-0.053048886
48	0x3f9d032b	1.2266592
49	0x3fc4db56	1.5379436
50	0xbe6b6fa0	-0.229918
51	0xbedf5c96	-0.43625325
52	0xbf7ad3f2	-0.9797965
53	0xbd4e21b0	-0.050325096
54	0xbe687e36	-0.22704396
55	0xbe839cb9	-0.25705507
56	0x3c60f75d	0.013730851
57	0x4010afa0	2.2607193
58	0xbec89292	-0.39174324
59	0xbe42ced1	-0.19024207
60	0x3f6bfb7f	0.9218063
61	0x3f21ab4d	0.6315201
62	0xbf1742c8	-0.59086275
63	0x3ea2cbac	0.31796014
64	0x3fa67bd4	1.3006539
65	0xbf0b5f6b	-0.5444247
66	0xbeb463bd	-0.35232344
67	0x3c807fbb	0.015685907
68	0xbe14347a	-0.14473143
69	0xbf3a4417	-0.72760147
70	0xbebe5214	-0.37171996
71	0x3f06ab2c	0.5260494
72	0x3f161dfc	0.586395
73	0x3ef0c7de	0.47027487
74	0x3de55587	0.11197954
75	0x3c3b3cd8	0.0114280805
76	0xbed79b06	-0.4211046
77	0x3e549031	0.2075813
78	0xbf5846fd	-0.8448332
79	0xbf2752cb	-0.6536071
80	0x3e54725f	0.20746754
81	0xbf632349	-0.88725716
82	0xbe57515b	-0.21027128
83	0x3d49bbd8	0.049251407
84	0x3f874490	1.0567799
85	0x3e37ce10	0.179497
86	0xbe629bcc	-0.22129744
87	0xbec1f470	-0.37881804
88	0xbf761162	-0.96120274
89	0x3d236199	0.039888
90	0xbef59f56	-0.47973126
91	0xbee09f4d	-0.43871537
92	0x3ded76fe	0.115949616
93	0xbecb01e6	-0.39649886
94	0x3e8d88fb	0.2764357
95	0xbd25c34e	-0.04046946
96	0x3d13c0c7	0.03607252
97	0x3d3cb868	0.0460743
98	0xbdab8190	-0.083743215
99	0xbdcdc8b2	-0.10048045
100	0x3e774061	0.24145652
101	0x3c745544	0.014912907
102	0x3e8db32a	0.27675754
103	0x3e752644	0.23940378
104	0x3db41bf4	0.08794394
105	0x3f875144	1.0571675
106	0xbcc4e7ff	-0.024036406
107	0x3e8eb329	0.27871063
108	0xbe97dd29	-0.2966092
109	0xbe9deb2a	-0.30843478
110	0xbd3386f2	-0.043829866
111	0xbe9c86ec	-0.30571687
112	0x3e52bb95	0.2057937
113	0xbe0737bb	-0.13204853
114	0xbdd2a3ae	-0.10285126
115	0xbe823d68	-0.25437474
116	0xbd3f994e	-0.046777062
117	0x3e1ffecf	0.15624546
118	0x3d227580	0.039662838
119	0x3e824b66	0.2544815
120	0xbcc858ba	-0.02445637
121	0x3e8099f1	0.25117448
122	0x3e0c2dd4	0.13689357
123	0x3f1b0c54	0.60565686
124	0x3ed71cde	0.4201421
125	0x3f02c2e0	0.51078606
126	0x3cc14369	0.023591714
127	0xbe7bbd10	-0.2458384
128	0x3e36f5bb	0.17867176
129	0x3e32793d	0.17429061
130	0x3e0d5071	0.13800217
131	0xbe105c88	-0.14097798
132	0xbdc9439c	-0.098273486
133	0x3f0628a0	0.5240574
134	0xbefc6e11	-0.49302724
135	0x3eadc2eb	0.33937773
136	0x3eb15625	0.34636036
137	0xbdebae97	-0.1150791
138	0x40dd3503	6.912721
139	0xc02190b0	-2.524456
140	0xbe045fde	-0.12927195
141	0xbe809b7f	-0.25118634
142	0xbec658e5	-0.38739696
143	0x3e899d3e	0.2687778
144	0x3d60ddd0	0.054899037
145	0x3d3bc6f1	0.045844022
146	0xbcceb6a8	-0.025233582
147	0xbf3b4b8b	-0.73162144
148	0x3d3b26f1	0.045691434
149	0xbe19eab6	-0.15030941
150	0x3eb14741	0.34624675
151	0xbe0591eb	-0.13043945
152	0xbcffe995	-0.03123931
153	0xbf6722a3	-0.90287226
154	0x3e252f2c	0.16131276
155	0x3cd9c820	0.026584685
156	0xbf4665fc	-0.77499366
157	0xbe8fd6de	-0.28093618
158	0xbf0e8e3c	-0.5568578
159	0xbe8a81b2	-0.27052075
160	0x3e2e6693	0.17031316
161	0x3dae004b	0.0849615
162	0x3c8f32dd	0.017480308
163	0x3d7f28d2	0.06229479
164	0xbe2dec07	-0.16984569
165	0x3ddd835e	0.10816072
166	0xbe40964e	-0.18807337
167	0x3ee386ef	0.44438884
168	0xbf319d85	-0.6938098
169	0xbeb472c7	-0.35243818
170	0xbd9deca6	-0.07711153
171	0xbe47edf1	-0.19524361
172	0xbe2916fd	-0.16512676
173	0x3db668e7	0.08906727
174	0xbec6aef2	-0.38805348
175	0x3dd49d3a	0.10381551
176	0xbead9bed	-0.33908024
177	0xbf5ac971	-0.85463625
178	0x3d337e56	0.043821655
179	0x3d098be4	0.033580676
180	0x3d024724	0.031806126
181	0x3f1158d6	0.5677618
182	0xbe16364f	-0.14669155
183	0x3e115b2d	0.14194937
184	0x40217629	2.522837
185	0xbe9701ae	-0.2949347
186	0xbeaa94c8	-0.33316636
187	0x3ec2596d	0.3795885
188	0x3e8fc58b	0.280804
189	0x3e987496	0.29776448
190	0xbe66da71	-0.22544266
191	0x3e632cfe	0.22185132
192	0x3f760e47	0.96115535
193	0xbd3711bc	-0.044694647
194	0xbf248352	-0.6426288
195	0xbf100891	-0.5626307
196	0xbc895bb7	-0.016767366
197	0x3e69ee4d	0.22844811
198	0xbfcb36bc	-1.5876079
199	0x3dc85e05	0.09783558
200	0x3e92efc1	0.28698543
201	0x3fb2ad93	1.3959221
202	0x3e4015e5	0.18758352
203	0xbed79167	-0.4210312
204	0xbe8b417d	-0.271984
205	0xbdad2eaf	-0.0845617
206	0xbe419838	-0.18905723
207	0x3f1b7bb6	0.6073564
208	0xbe495025	-0.19659479
209	0xbee9b601	-0.4564667
210	0x3fc25f4a	1.518533
211	0x3f93c6df	1.1545066
212	0xbe727adc	-0.2367968
213	0x3f424be9	0.7589708
214	0x3ee68dcd	0.4503006
215	0xbf8b4231	-1.0879575
216	0x3f405cfb	0.75141877
217	0x3f26bf1c	0.6513536
218	0xbeb311e0	-0.34974575
219	0x3ec5f0f4	0.38660395
220	0x3f4aa4cd	0.79157716
221	0xbe89ffcc	-0.2695297
222	0xbf72794f	-0.9471635
223	0x3d25281c	0.040321454
224	0xbc038118	-0.008026384
225	0xbf0278a5	-0.5096534
226	0xbf1f594d	-0.6224564
227	0x3c87fbc2	0.01659954
228	0x3f06df5a	0.5268456
229	0xbe390dcf	-0.18071674
230	0x3e1acade	0.1511645
231	0xbf58f31a	-0.84745944
232	0xbf624656	-0.88388574
233	0x3f209e3a	0.62741435
234	0x400c4a07	2.1920183
235	0xbe827114	-0.25476897
236	0xbedf1de5	-0.43577495
237	0xbf8eb7f0	-1.1149883
238	0xbf592857	-0.8482718
239	0x3e8ea12c	0.2785734
240	0xbf967db2	-1.1757109
241	0xbed243e9	-0.41067436
242	0x3da39564	0.079874784
243	0x3ed8cc11	0.4234319
244	0x3d595458	0.053058952
245	0x3dfaf7dd	0.122543074
246	0xbe9ea60d	-0.30986062
247	0xbd5e08ff	-0.054207798
248	0xbe91da1e	-0.28486723
249	0xbf4a0308	-0.78910875
250	0xbe027774	-0.1274088
251	0x3d133b06	0.03594496
252	0xbf977f1a	-1.1835663
253	0xbf305171	-0.6887427
254	0x3ea22472	0.3166843
255	0x3e34cdb0	0.17656589

conv1.bias f4 [64]
0	0x408831b1	4.256066
1	0x409055a5	4.5104547
2	0x40778208	3.8673115
3	0x4088a50e	4.2701483
4	0x4099a8a9	4.8018384
5	0x40d3cde6	6.618884
6	0x4098b0fa	4.7716036
7	0x408e2bab	4.4428306
8	0x409c68d4	4.8877964
9	0x40a591f6	5.1740675
10	0x40bb9d07	5.8629184
11	0x40924877	4.571346
12	0x409e2c34	4.942896
13	0x4085fb65	4.186938
14	0x406d313b	3.7061298
15	0x408cc222	4.398698
16	0x4068cfe2	3.6376882
17	0x406bd005	3.6845715
18	0x4086e6bb	4.2156653
19	0x408b4984	4.352724
20	0x40b328c4	5.5987263
21	0x40a9b7ee	5.3037024
22	0x40aa2991	5.317574
23	0x405435e7	3.31579
24	0x40782b71	3.8776515
25	0x408f9d7f	4.4879756
26	0x409ddb2c	4.9330044
27	0x40a3ee2b	5.122823
28	0x408541bd	4.1642747
29	0x40803ddd	4.0075517
30	0x40da7a32	6.8274164
31	0x40cc2157	6.37907
32	0x408fc122	4.492326
33	0x409e68d8	4.9502983
34	0x40aa7218	5.3264275
35	0x409b2d6f	4.849296
36	0x40a2f908	5.0928993
37	0x409f6f4f	4.9823375
38	0x409c090c	4.8761044
39	0x409e2707	4.942264
40	0x40c1200b	6.0351615
41	0x40b036f1	5.5067067
42	0x4099ea89	4.80988
43	0x4089a9a1	4.3019567
44	0x405c4652	3.441792
45	0x40c26649	6.074986
46	0x40985b70	4.761162
47	0x40bbc712	5.8680506
48	0x409d1c71	4.909722
49	0x40a52f0d	5.1619935
50	0x40820658	4.0632744
51	0x40a61aad	5.1907563
52	0x40aef467	5.4673343
53	0x40afbcfe	5.4918203
54	0x407f89cb	3.9927852
55	0x408f0e3c	4.4704876
56	0x40ac71a2	5.388871
57	0x4097d358	4.744549
58	0x40d92efa	6.7869844
59	0x408723ec	4.223135
60	0x4082b23e	4.084258
61	0x408a6d0f	4.325813
62	0x40de0fa7	6.9394107
63	0x407e20d2	3.9707532

conv2.weight f4 [32, 64, 3]
0	0xbd0bd5f5	-0.034139592
1	0x3e09d498	0.13460004
2	0x3cba30e5	0.022728393
3	0xbe56bff8	-0.20971668
4	0xbecf12a6	-0.40443915
5	0xbe33799e	-0.17526862
6	0xbecbe0a7	-0.39819834
7	0xbebea74d	-0.37237015
8	0x3a4ddd0a	0.0007853067
9	0x3ebcb66e	0.36857933
10	0x3e82f6ff	0.25579068
11	0xbe6b7454	-0.22993594
12	0x3eb9d573	0.3629566
13	0x3f2b4871	0.6690741
14	0x3e738058	0.23779428
15	0xbd4f8c1c	-0.050670728
16	0x3e20ec75	0.15715201
17	0xbd6bd12b	-0.057572525
18	0x3d5d4220	0.05401814
19	0x3eab5f1e	0.33471006
20	0xbdeed5bb	-0.116618596
21	0xbeace56f	-0.33768794
22	0xbfba7335	-1.4566408
23	0xbe6f786f	-0.23385786
24	0x3d0d1ce9	0.0344514
25	0xbdbf1c16	-0.09331529
26	0xbdd160c0	-0.10223532
27	0x3e045639	0.12923516
28	0x3eab2ef4	0.3343426
29	0xbde26fc5	-0.110564746
30	0x3de82ff6	0.11337273
31	0x3eb85f9b	0.3601044
32	0x3e32b9de	0.17453715
33	0x3dcd2871	0.10017479
34	0xbe18fa58	-0.14939249
35	0x3e4cb616	0.19991335
36	0x3df4a943	0.119463466
37	0x3ee9f515	0.45694795
38	0x3e08b2bc	0.13349432
39	0x3edefe4c	0.43553388
40	0x3d0cbf50	0.034362137
41	0x3e357fd8	0.1772455
42	0x3edbc5fc	0.42924488
43	0x3e5f1a75	0.21787436
44	0x3e69688c	0.22793788
45	0x3de178af	0.11009347
46	0xbe5d53bf	-0.21613978
47	0x3e0de447	0.13856612
48	0x3cd55757	0.026042623
49	0x3ec9344b	0.3929771
50	0x3e1687ae	0.14700195
51	0x3ee569b7	0.44807217
52	0x3f00ea21	0.5035725
53	0x3e513fa9	0.2043444
54	0xbe828e26	-0.25499076
55	0xbdbcca6e	-0.09218298
56	0x3ea38269	0.31935433
57	0xbd5e9816	-0.05434426
58	0x3ec40de9	0.38291863
59	0xbcb41f1e	-0.021987494
60	0x3f52e732	0.82384026
61	0x3f00ddf3	0.5033867
62	0xbc520703	-0.012819055
63	0x3e4ce477	0.20009027
64	0xbc9cc79c	-0.01913815
65	0x3e691903	0.22763447
66	0x3de6f845	0.112778224
67	0x3f56afc5	0.83861953
68	0x3e2d225a	0.16907635
69	0x3ed99ce3	0.42502508
70	0x3e97b1e6	0.29627913
71	0xbc9f8c56	-0.019476097
72	0x3eb2ce98	0.34923244
73	0x3f32d130	0.69850445
74	0xbdb7e43a	-0.08979078
75	0x3f1b0285	0.6055072
76	0x3e9900bd	0.29883376
77	0x3e91d334	0.28481448
78	0x3ddfef6e	0.109343395
79	0x3f7eea89	0.9957662
80	0x3ebd7739	0.37005022
81	0xbe188328	-0.14893782
82	0xbf29b171	-0.6628638
83	0xbea5c182	-0.32374197
84	0x3f5a5b2e	0.8529538
85	0x3f6f0438	0.9336581
86	0x3e0eaa85	0.13932236
87	0x3f5c232c	0.8599117
88	0x3f8635ff	1.0485228
89	0x3dd60f8a	0.104521826
90	0x3e008f79	0.1255473
91	0xbe94c2f5	-0.2905499
92	0x3dfa13ef	0.12210833
93	0x3e853ae4	0.26021492
94	0x3d641b6e	0.05569022
95	0xbe7c32f6	-0.24628815
96	0x3f0c5543	0.548176
97	0x3f1e5ce9	0.6186052
98	0x3ee188d1	0.44049695
99	0x3e85e6ee	0.26152748
100	0xbe2c9cb0	-0.16856647
101	0x3eafa55f	0.34305856
102	0x3e655e26	0.22399196
103	0x3e8926a5	0.26787296
104	0x3e5fc1d5	0.21851285
105	0x3ecfd649	0.40593174
106	0x3f649591	0.8929072
107	0x3e807651	0.25090268
108	0x3f08928f	0.5334863
109	0x3f3fc405	0.7490848
110	0x3f1c1b24	0.60978913
111	0x3f19addf	0.6003093
112	0x3f5bf177	0.8591532
113	0xbec41a38	-0.38301253
114	0xbfb22225	-1.391667
115	0xbfa77479	-1.308242
116	0x3ee66cdf	0.45004937
117	0x3e8a45c6	0.27006358
118	0x3dbc25d5	0.091869034
119	0xbddce739	-0.1078629
120	0x3f1aef04	0.6052096
121	0x3f3bab39	0.7330814
122	0xbd2143ce	-0.039371304
123	0x3e926939	0.28595904
124	0x3f0014c5	0.5003169
125	0x3eb01b2d	0.34395733
126	0x3ea0a7e4	0.3137809
127	0x3f1df6ea	0.61704886
128	0xbe97003c	-0.29492366
129	0x3e092ba6	0.13395557
130	0x3da6b6e6	0.08140354
131	0x3e11a0c6	0.14221486
132	0x3f4efcb6	0.80854356
133	0x3f15bc3a	0.58490336
134	0x3dabb37e	0.08383845
135	0x3f01f4b9	0.5076404
136	0xbd0b1a33	-0.033960532
137	0xbe8bfa1a	-0.2733925
138	0x3fdbef4e	1.7182405
139	0xc120b93b	-10.045222
140	0xc01eb1b7	-2.4795969
141	0x3ee2dfd5	0.44311395
142	0x3f0a6ec3	0.5407526
143	0x3f03bcd7	0.5146002
144	0x3d72f942	0.059319742
145	0xbe99aaa8	-0.30013013
146	0xbcf31e4d	-0.029677534
147	0xbd86f59b	-0.06589814
148	0xbe58d5c9	-0.21175303
149	0x3eb19a78	0.34688163
150	0xbf02441e	-0.5088519
151	0xbe34d842	-0.17660621
152	0xbea7df0f	-0.32787368
153	0xbd13e377	-0.0361056
154	0x3f36ac56	0.71356714
155	0x3eaf430d	0.34230843
156	0x3d0871ab	0.033311527
157	0x3ebb3f04	0.36571515
158	0x3ecfe8fe	0.40607446
159	0x3cab8e84	0.02094198
160	0x3e6c7b92	0.23094013
161	0x3dbfaf0c	0.093595594
162	0xbf1582d3	-0.58402747
163	0xbf0614c7	-0.52375454
164	0xbdbc031d	-0.09180281
165	0x3e499df5	0.19689162
166	0xbeb34062	-0.35010058
167	0x3ef7137c	0.48257053
168	0xbf5bc9b1	-0.8585463
169	0xbf7ae98d	-0.9801262
170	0xbd05a708	-0.032629997
171	0x3d42737d	0.04747342
172	0xbe2cfb39	-0.16892709
173	0xbeeac55b	-0.45853695
174	0x3d493fbf	0.04913306
175	0x3e97295d	0.29523745
176	0x3eba5619	0.36393812
177	0xbc0120cb	-0.007881354
178	0xbc3f8a9e	-0.011690764
179	0xbe340001	-0.17578126
180	0x3d683198	0.05668792
181	0xbf34717c	-0.70485663
182	0xbe63947c	-0.22224611
183	0x3e640587	0.22267734
184	0x3e096774	0.1341837
185	0x3e489f3a	0.1959199
186	0x3d8eef01	0.0697918
187	0x3e0d6a07	0.13809977
188	0x3e2ee089	0.17077841
189	0xbf73f6ee	-0.9529866
190	0xbee8868d	-0.45415154
191	0x3ed4695a	0.41486627
192	0x3f6a33fe	0.91485584
193	0x3f976c43	1.1829914
194	0x3cf16e92	0.02947167
195	0xbe009165	-0.12555464
196	0x3d20072d	0.039069343
197	0x3d93f549	0.07224519
198	0x3f1b474e	0.6065568
199	0x3f2fc61c	0.68661666
200	0xbe849e2c	-0.25901926
201	0x3f08750f	0.5330362
202	0xbe9c8e21	-0.30577186
203	0x3ec157b7	0.37762234
204	0xbfab6592	-1.3390372
205	0xbd188a08	-0.03724101
206	0x3ed488b1	0.41510537
207	0x3e955e15	0.2917334
208	0x3f04e3d7	0.51910156
209	0x3cdde4ad	0.02708658
210	0xbf3ef26b	-0.7458865
211	0x3e437d88	0.19090855
212	0x3e2084f0	0.15675712
213	0x3f8a54ab	1.0807089
214	0x3f957119	1.167514
215	0xbcfc30d0	-0.030784994
216	0x4039dc1a	2.904059
217	0xc101dc0e	-8.116224
218	0xbf1d71e0	-0.61501884
219	0xbe7fdec3	-0.2498732
220	0x3eb129bd	0.34602156
221	0x3e93d386	0.28872317
222	0x3e815cc0	0.25266075
223	0x3e875244	0.2642995
224	0xbe36f145	-0.17865475
225	0x3eac202e	0.336183
226	0xbe36eba2	-0.17863324
227	0xbe294eee	-0.16534016
228	0x3f17709c	0.59156203
229	0xbe6000a8	-0.2187525
230	0x3ca202a2	0.019776646
231	0xbdb4b567	-0.08823662
232	0xbe9838a5	-0.29730716
233	0xbe2586c0	-0.16164684
234	0x3dd2e90a	0.10298355
235	0x3f0f7895	0.5604337
236	0x3e2b553a	0.1673173
237	0x3e6a218d	0.22864361
238	0x3e253aa2	0.16135648
239	0x3e0dc9c2	0.13846496
240	0xbf633d0b	-0.8876502
241	0xbf37bf98	-0.71776724
242	0xbe8ec26f	-0.27882716
243	0xbdf158f2	-0.11784543
244	0xbd4a8599	-0.049443815
245	0x3e12fe2e	0.14354774
246	0x3db71721	0.08939958
247	0xbd9b1986	-0.075732276
248	0xbd5e6914	-0.05429943
249	0x3e416707	0.18886958
250	0x3c866159	0.01640384
251	0x3d5520d5	0.052033264
252	0x3e528491	0.20558383
253	0xbd8d1be6	-0.06890087
254	0xbd4e13d6	-0.050311886
255	0x3d9e8df6	0.07741921

conv2.bias f4 [32]
0	0xc07f10c1	-3.9853976
1	0xc07abdb4	-3.9178286
2	0xc0727049	-3.7881033
3	0xc07d8536	-3.9612556
4	0xc099eed0	-4.810402
5	0xc07bb653	-3.9330032
6	0xc08c59a7	-4.385944
7	0xc00e9612	-2.2279096
8	0xc0652769	-3.5805304
9	0xc0861f5a	-4.191327
10	0xc0333b6b	-2.8005016
11	0xc07f63da	-3.9904695
12	0xc0690bb9	-3.6413405
13	0xc09ef37d	-4.9672227
14	0xc0603307	-3.5031145
15	0xc092b23d	-4.5842576
16	0xc05c8027	-3.4453218
17	0xc027f667	-2.6244142
18	0xc00eb4d6	-2.2297873
19	0xc0808a52	-4.016885
20	0xc07154d6	-3.770803
21	0xc01d49ab	-2.4576213
22	0xc0722af7	-3.7838724
23	0xc001f7d8	-2.0307522
24	0xc098f6c1	-4.7801213
25	0xbff5a10d	-1.9189774
26	0xc032b5bb	-2.792342
27	0xc08fac11	-4.489754
28	0xc07e9624	-3.9779139
29	0xc071813e	-3.7735133
30	0xc087c268	-4.242481
31	0xc08c1f88	-4.378849

fc1.weight f4 [12, 7]
0	0xc027c637	-2.621473
1	0xbfb51530	-1.4147091
2	0xc003f2cb	-2.061694
3	0xbfc65755	-1.5495402
4	0xbfbf3a81	-1.4939729
5	0xbfc79b6a	-1.5594304
6	0xbfdeb2b4	-1.7398286
7	0xbc8b0d16	-0.016974013
8	0x3c725d54	0.014792759
9	0xbc17b1d0	-0.009258702
10	0xbb0210a8	-0.0019846354
11	0xbb90f807	-0.0044240984
12	0x3936e8d0	0.00017443602
13	0xbba43f32	-0.0050124163
14	0xc0330a53	-2.7975051
15	0xbfde9002	-1.7387698
16	0xbfcfc594	-1.6232171
17	0xbfd8cede	-1.6938131
18	0xbf9aab5c	-1.2083545
19	0xbfdca6a8	-1.723836
20	0xbfe8be2a	-1.8183033
21	0x3d36a6a9	0.044592533
22	0xbd137c8d	-0.036007453
23	0x3b759dba	0.0037478046
24	0x3c1a110f	0.009403481
25	0xbae95c92	-0.0017804077
26	0xbb35eb76	-0.0027758754
27	0x3b747df2	0.0037306515
28	0xc02ec13f	-2.7305448
29	0xbfbf22a9	-1.4932452
30	0xbff17b25	-1.8865706
31	0xbfb970ac	-1.448751
32	0xbfa4e5f6	-1.2882679
33	0xbfc66410	-1.5499287
34	0xbff038b8	-1.8767309
35	0xc02b789f	-2.6792371
36	0xbfd3c431	-1.6544248
37	0xbfd916f8	-1.6960135
38	0xbfd62bb7	-1.6732091
39	0xbfa6d99e	-1.3035161
40	0xbfb79330	-1.4341793
41	0xc000a881	-2.0102847
42	0xc033e01f	-2.8105543
43	0xbfbb8371	-1.4649488
44	0xbff53ee5	-1.9159819
45	0xbfcc3e82	-1.5956576
46	0xbf9ef7eb	-1.2419409
47	0xbfc6aaf4	-1.5520921
48	0xbff2449a	-1.8927186
49	0xc02ae146	-2.6699996
50	0xbfce4ac0	-1.6116562
51	0xbfdf8ac7	-1.7464226
52	0xbfc78678	-1.5587912
53	0xbfbdb524	-1.4820905
54	0xbfb65c0f	-1.4246844
55	0xc0015402	-2.0207524
56	0xc0364756	-2.848104
57	0xbfde4aab	-1.7366537
58	0xbfd3f7fe	-1.6560056
59	0xbfb1b87c	-1.3884425
60	0xbfae9fb2	-1.3642485
61	0xbfb2cd7d	-1.396896
62	0xc0054005	-2.0820324
63	0xc0326be0	-2.7878342
64	0xbfd37492	-1.651995
65	0xbfe128f4	-1.7590623
66	0xbfa5815f	-1.2930106
67	0xbfc4fa9f	-1.5388983
68	0xbfc1ae8e	-1.5131395
69	0xc001dec2	-2.029221
70	0xc02b9fdc	-2.681632
71	0xbfcd879e	-1.6057012
72	0xbfceefa9	-1.6166888
73	0xbfbf580f	-1.4948748
74	0xbfbabe0f	-1.4589251
75	0xbfa03d42	-1.2518694
76	0xc003cb3f	-2.0592802
77	0xc0372dc2	-2.8621678
78	0xbfa71763	-1.3054012
79	0xc0049959	-2.0718596
80	0xbf94f0a6	-1.163594
81	0xbfc56509	-1.5421458
82	0xbfbf18ae	-1.4929407
83	0xc0038ce1	-2.0554736

fc1.bias f4 [12]
0	0xc14d9711	-12.849381
1	0x40147d84	2.3201609
2	0xc15a4b21	-13.643342
3	0xc0d781ba	-6.734586
4	0xc15a6796	-13.65029
5	0xc15a60c7	-13.648627
6	0xc15a53a3	-13.645419
7	0xc15a30fd	-13.63696
8	0xc159ed70	-13.620468
9	0xc15a2163	-13.633151
10	0xc15a6ee3	-13.652072
11	0xc15a41dd	-13.64108
