model_dump/20percent_cnn/cnn_v1_state.pth (torch, 51967 bytes, 6 tensors)

conv1.weight f4 [64, 32, 3]
000000 6d cb d2 40 6a 25 6f c0 95 cf a5 bf ab 1a 09 3f
       6.5873322 -3.7366586 -1.2953974 0.5355632
000010 51 68 54 be 5a 79 1e be f5 2f 67 bb 99 70 24 3e
       -0.20742919 -0.1547598 -0.0035276387 0.16058578
000020 64 24 c6 3c 9d ce f6 bd ef 50 83 3e ba c0 4c 3e
       0.024187274 -0.12051127 0.25647685 0.19995394
000030 2d 9d cf be 55 ca 31 3e de a9 af 3d 4a 41 24 3d
       -0.40549603 0.1736234 0.085773215 0.040101327
000040 88 e9 54 be db 00 b8 3e 21 6c 07 3e 09 c0 76 bd
       -0.2079221 0.35938153 0.13224842 -0.060241733
000050 c6 af eb 3d ad 71 ba 3d 89 3a 20 3e c9 ab 63 3e
       0.115081355 0.09103713 0.1564733 0.222335
000060 e1 a0 3d be 7b f7 eb 3d c5 11 c7 3e 4d 6d 2d be
       -0.18518402 0.115218125 0.38880745 -0.16936226
000070 b5 a1 98 be b2 93 fb bd 43 46 45 3e 9f 1a c9 bd
       -0.29810873 -0.1228403 0.19265084 -0.09819531
000080 86 0e bc 3d 8c 72 98 bd 7f c7 fe be 35 bf 14 3e
       0.091824576 -0.07443723 -0.49761578 0.14526065
000090 67 14 84 be 91 98 95 be 42 ba 44 be 6e fb 7a 3f
       -0.25796816 -0.2921796 -0.19211677 0.980399
0000a0 ac 17 62 be 23 13 9b be 69 2a 1e 3e 99 0b 3a bd
       -0.22079343 -0.30288038 0.15445866 -0.045421217
0000b0 f2 e0 90 3d b3 8b c1 3e f8 e6 05 3e f9 04 08 bd
       0.07074155 0.37801895 0.13076389 -0.033207867
0000c0 e5 1b ae be f5 8c 8c 3e d6 a9 13 3d f7 3a ca 3b
       -0.34005657 0.27451292 0.03605064 0.00617158
0000d0 07 f3 8d 3e a6 79 05 be 5f b2 dc 3d a0 03 5c be
       0.27724478 -0.13034686 0.10776209 -0.21485758
0000e0 28 c5 5c 3e 3c 6f 61 3e ff 62 ce 3d f4 af 94 3e
       0.21559584 0.22015089 0.10077476 0.29040492
0000f0 f0 51 6b 3e a3 24 3c 3e 6c 44 c2 bd d1 e3 d6 bc
       0.22980475 0.18373351 -0.09485707 -0.026231678
000100 55 33 b3 3d c8 06 80 3e 07 d0 54 bd 34 19 54 3d
       0.08750025 0.25005174 -0.051956203 0.051781848
000110 a1 85 c4 3d 36 62 66 be 8d ee 7b 3e 46 62 ad ba
       0.095958 -0.22498402 0.24602719 -0.001322814
000120 05 e6 1d 3e b1 70 36 3e a0 58 b5 be 31 92 28 3e
       0.15419777 0.17816426 -0.35419178 0.16462018
000130 0d 56 c5 be fd 4d 9d 3e 82 d9 70 3d 11 79 2a be
       -0.38542214 0.30723563 0.05880118 -0.16647746
000140 00 47 4c be 12 a1 99 3e 84 c8 58 3e a7 e7 e5 bc
       -0.1994896 0.300057 0.2117024 -0.028064562
000150 86 22 0b 3e f2 5e 5d be d7 cd d4 bd 13 80 90 bd
       0.13587388 -0.2161825 -0.10390823 -0.07055678
000160 67 ad 56 be 46 f1 13 bd b9 71 51 be 3d a3 69 3d
       -0.20964585 -0.03611877 -0.20453538 0.05704044
000170 39 da c8 3d d6 f7 e3 3d 41 40 ff 3d 44 10 45 bd
       0.09807248 0.11131255 0.12463427 -0.048111215
000180 2e a3 8e be 08 cf 26 be 1b d1 fd 3d 44 0c bc bd
       -0.2785887 -0.16289914 0.12393399 -0.09182027
000190 e0 3c b3 3d a0 bb 29 3d 64 2b be 3d 8b 59 ec bd
       0.08751845 0.0414387 0.0928562 -0.115405165
0001a0 79 91 ae bd 0b 4c ee 40 7b 71 83 c0 23 67 fb bf
       -0.085238405 7.4467826 -4.1076026 -1.964085
0001b0 79 1a 3b be 72 c4 01 3b a0 84 42 3e 59 67 11 3f
       -0.18271817 0.0019800928 0.18995905 0.5679832
0001c0 e5 de 4f be a7 2f d1 be 9d 59 f8 bb d6 2e 8f be
       -0.20299871 -0.40856668 -0.007579042 -0.2796542
0001d0 a9 5c 5a be 1c 36 11 3e c1 86 75 bd ee 5d 00 bd
       -0.2132441 0.14180797 -0.059942964 -0.03133958
0001e0 35 ad 28 bd d7 30 61 be 5e 95 89 bb 5b 93 43 3e
       -0.041180808 -0.21991287 -0.004198714 0.1909918
0001f0 e4 4f 82 be b5 ba 4a 3e 17 cb 00 bd f9 fd d1 3e
       -0.25451577 0.19797786 -0.03144368 0.41014078
000200 02 28 d8 3d fc 91 0c bd 76 ad a5 3e b7 21 85 3d
       0.10554506 -0.03431891 0.32358903 0.06500571
000210 9d 2f 72 be 65 2f 0f 3e ef fe 5d 3e fd f2 22 be
       -0.23650976 0.13982923 0.2167928 -0.15913005
000220 3f 2f be 3c 65 7a ad 3d da 3d bf 3d 0a ef 9a 3d
       0.023215888 0.084706105 0.09337969 0.07565124
000230 5a 9c c2 3d d1 07 83 3e b4 88 9e bd c6 d0 b1 3d
       0.09502478 0.255919 -0.07740918 0.086823985
000240 42 70 2d bd 3d 9d 10 be 4f 36 0c 3e 9f f8 5b 3e
       -0.042343386 -0.14122482 0.13692592 0.2148156
000250 04 38 21 be 5f 30 f6 3d 85 0d 10 bd a5 fa fe bd
       -0.15744025 0.12020945 -0.035169143 -0.124501504
000260 d7 f3 b9 3d 79 0c 65 3d fe e2 86 3e 72 05 6c bd
       0.09079712 0.055920098 0.26345056 -0.05762238
000270 be 18 dc bc 78 5f 12 3e a7 60 c5 3d c1 54 f2 3d
       -0.026867267 0.14294231 0.096375756 0.11832572
000280 9a bf d7 bd bc d5 07 3e 81 a9 88 be 6e c8 4d bd
       -0.10534592 0.13265127 -0.2669182 -0.050239973
000290 79 b1 5c be 8d 59 03 3e d6 fa d8 3d 45 f0 a9 3d
       -0.21552075 0.1282713 0.10594718 0.08297781
0002a0 1a d5 d7 bb 73 dd 35 bd 63 52 3a 3e 43 ee 9a 3d
       -0.006586683 -0.044400644 0.1819549 0.07564976
0002b0 19 59 45 be 11 a0 a2 be 0c 67 4c be 9a 6c 96 3e
       -0.1927227 -0.31762746 -0.19961184 0.2937973
0002c0 c6 b6 f3 3d 53 77 75 be c3 e3 24 3e 58 ce 16 3e
       0.11900096 -0.239713 0.16102509 0.14727151
0002d0 92 66 94 be c3 bd 24 3e f5 b3 b8 3d 20 37 67 3d
       -0.28984505 0.16088013 0.09018699 0.056449056
0002e0 c6 9c b2 3d 1d 4f a3 bc da 32 de 3d 1b 49 7a be
       0.087213084 -0.019935185 0.10849543 -0.2444195
0002f0 ac d5 49 be e7 68 d7 3d ef bb 21 3c 6d 37 34 3e
       -0.19710416 0.105180554 0.009871467 0.17599268
000300 bf be bd be 8a 6b a7 3e 53 b0 a6 3d 7d 12 95 bd
       -0.3705959 0.32699233 0.081391 -0.07278917
000310 93 7a 6d 3e 41 34 ec be 4f 2f 1d 3d 76 9f be 3d
       0.2319129 -0.46133617 0.038375195 0.093077585
000320 ae 5d 3b be b1 cb 8a 3f 21 32 01 bf f4 a6 17 bf
       -0.18297455 1.0843412 -0.50467116 -0.59239125
000330 97 d6 98 3d ca a9 0d 3d f5 d5 c1 be 60 7e 74 3e
       0.07462805 0.03458575 -0.3785855 0.23876333
000340 f8 4e 92 bd f9 27 3a be c8 2a 9a 3e 8e 19 86 3e
       -0.07143968 -0.18179311 0.30110765 0.26191372
000350 65 e7 a5 be 21 6d 7d 3b 1c 8a a9 3e 0f aa 9b be
       -0.32403103 0.0038669782 0.33113182 -0.30403182
000360 88 e3 22 3d 30 9a 74 3e 8b 17 56 be 7a 55 8a bd
       0.039767772 0.23886943 -0.20907418 -0.067545846
000370 68 92 3c be 78 c4 49 bd a3 4e e8 be f9 d1 f1 3e
       -0.18415225 -0.049259633 -0.45372495 0.4723051
000380 59 76 26 3d 8d 76 ce be 2f a4 ab 3e bc f6 03 bc
       0.04064021 -0.40324822 0.335237 -0.0080544315
000390 80 f6 c8 be 8b 37 0c 3f fb 0c 32 be 0d 37 af be
       -0.39250565 0.5477225 -0.17387764 -0.34221688
0003a0 27 ea 2f 3e c0 b1 c9 be ca 35 fc 3e a5 23 a2 be
       0.17179166 -0.39393425 0.49259788 -0.3166782
0003b0 3a 29 d2 be 59 32 dc 3c 32 07 79 3e 39 a6 29 be
       -0.41047078 0.026879476 0.24319151 -0.16567315
0003c0 33 b7 d1 bd 44 80 8c 3e f5 c8 14 bf 73 2b 34 3e
       -0.102400206 0.2744161 -0.58119136 0.175947
0003d0 b4 5b 82 3e 74 76 0e 3a c0 c3 18 bf 8b 57 74 3f
       0.2546059 0.0005434521 -0.5967369 0.9544608
0003e0 61 b8 0b 3f ec 38 5a 3e 5a 1d 3a be 55 9a ff be
       0.54578215 0.21310776 -0.18175259 -0.49922433
0003f0 22 2a a0 3e a7 e7 35 be ff 1a 83 3d 51 02 09 be
       0.31282145 -0.1776415 0.064016335 -0.1337979

conv1.bias f4 [64]
000000 4a d9 ac 3f 61 9c ee 3f 3b e2 18 41 70 d6 1f 40
       1.3503811 1.8641473 9.555232 2.4974632
000010 67 57 17 40 00 f0 35 40 d1 97 2f 40 10 cf d9 40
       2.3647096 2.8427734 2.7436411 6.806526
000020 6c 06 f7 3f 4f 04 21 40 27 3a 94 3f c0 2b 41 40
       1.9298835 2.515888 1.1580247 3.0182953
000030 98 93 46 3f 8a 8b 49 40 d1 fe a6 3f 4e 05 37 40
       0.7756896 3.1491418 1.3046514 2.8596988
000040 68 65 2d 41 e5 d3 9a 3e 22 9d 98 3f 7b 27 1b 40
       10.837257 0.30239788 1.1922953 2.4242847
000050 13 d9 ba 3f d1 49 10 3f 6c c1 14 40 d5 ce fd 3f
       1.4597496 0.56362635 2.3243055 1.9828745
000060 c8 40 c0 3f 23 a8 36 3f 57 c1 3c 40 64 6f 07 40
       1.501977 0.71350306 2.9493005 2.1161737
000070 dd 5a 1e 40 4d fd 0f 40 aa bd 2f bf 25 01 cf 3f
       2.4742959 2.2498353 -0.6864878 1.6172224
000080 23 45 24 40 99 1e 32 40 27 2b 0a 40 eb 48 83 3f
       2.5667198 2.7831175 2.1588838 1.0256628
000090 23 49 1f 40 29 ab f6 3f 91 5f 02 40 b1 c0 27 40
       2.488839 1.9270984 2.037083 2.621136
0000a0 8a 14 9a 3f 34 e9 fe 3f 3e 1b 3f 40 95 d9 1c 40
       1.2037518 1.9914918 2.9860377 2.4507802
0000b0 43 21 3d 40 58 9e b6 3f 52 90 9c 3f 48 dc b1 3f
       2.9551551 1.4267073 1.2231543 1.389535
0000c0 52 88 fe 3f 3e ab 5e 40 7e 12 cd 3f 01 3a a0 3f
       1.9885352 3.4792018 1.6021268 1.2517701
0000d0 38 41 1c 40 97 2e ff 3e aa 5a 2e 40 56 12 42 40
       2.4414806 0.49840233 2.7242837 3.0323691
0000e0 20 39 eb 3f b1 bf c9 3f 6f f8 c5 3e 52 7d 16 40
       1.8376808 1.5761625 0.38666102 2.351399
0000f0 86 e8 1e 40 72 aa da 40 30 72 26 40 94 d5 ad 3f
       2.482942 6.8333063 2.6007195 1.3580804

conv2.weight f4 [32, 64, 3]
000000 60 4e 60 c0 ad a0 b2 40 28 eb 61 40 3d 21 93 3e
       -3.5047836 5.5821137 3.5299778 0.28736296
000010 59 e7 9d be b4 76 2c 3d 96 99 27 3f d2 51 98 3e
       -0.30840567 0.04210539 0.6546873 0.29749924
000020 8f 21 60 3e d4 0d 55 be cf 98 aa 3e 40 14 0e bd
       0.21887802 -0.20806056 0.3331971 -0.03468728
000030 b8 a9 17 3e 05 e0 3b 3d 57 5a 58 be be c5 ba 3d
       0.14810836 0.04586794 -0.21128212 0.091197476
000040 6e 9a 80 bd c5 06 86 be cd 24 ae 3e 50 14 05 bd
       -0.06279455 -0.2617704 0.34012452 -0.032490075
000050 f8 43 a0 bc ae 01 25 3f 65 d0 bc 3e cf a6 a0 3e
       -0.01956366 0.6445569 0.36877742 0.31377265
000060 ec 59 bb 3e fd 0f 4f be 72 94 07 be d1 86 f9 3e
       0.36592042 -0.20220943 -0.13240221 0.4873567
000070 5b 8e 0b be b5 3d 8e be 3a d5 0a bd 50 ea 61 bd
       -0.13628523 -0.27781454 -0.033894755 -0.0551551
000080 7e d3 35 3e b6 59 d2 bd 82 0c a6 3d 76 72 5a bd
       0.17756459 -0.10271017 0.081078544 -0.053331815
000090 ac f0 8d 3e 46 0b 9d be ad 93 36 3d 1e ae c2 be
       0.2772268 -0.30672663 0.04457443 -0.38023466
0000a0 1e 8c e7 bc 44 cf 12 be ea e7 6e be 5f 34 27 3e
       -0.028265055 -0.14336878 -0.23330656 0.16328572
0000b0 b4 41 51 be 23 df 70 3e 0c 09 8f 3c fa 36 b6 3d
       -0.2043522 0.2352262 0.017460369 0.08897205
0000c0 00 d2 ad bd 88 94 0c 3f 0c 5b a4 3e 38 c4 96 be
       -0.0848732 0.5491414 0.32100713 -0.29446578
0000d0 9e 22 86 3e fa 29 9e 3e aa cd e6 be 1c 2b ba 3c
       0.26198286 0.308914 -0.45078784 0.022725634
0000e0 88 a5 be 3d 75 37 0c be 04 3f ef 3d ae ac 61 3d
       0.09308916 -0.1369303 0.11681941 0.05509632
0000f0 b3 ac 26 3e b6 76 a8 3d fb 58 ed bc e1 72 84 3d
       0.16276817 0.08225767 -0.028973093 0.06467224
000100 be 66 88 bc f3 82 50 be 49 f2 b4 3d 90 89 18 bd
       -0.016650554 -0.20362453 0.08835275 -0.037240565
000110 93 9a 53 3d b5 63 81 be 68 49 f7 3b e1 10 61 bd
       0.051661085 -0.25271383 0.0075465925 -0.054947738
000120 4f 88 f9 3a b8 ee 26 be 0d 89 98 be 49 66 b3 3d
       0.0019037816 -0.16302001 -0.2979206 0.08759744
000130 fc ad e1 bb e5 3b 86 3e e4 72 38 3c 5d e3 4c 3d
       -0.0068871956 0.2621757 0.011257861 0.050021518
000140 b3 4b 0f bd e1 13 bd bd fa c6 ea 3d 20 cd 09 3e
       -0.0349843 -0.09232307 0.11463733 0.13457155
000150 06 d6 3f 3e 4d 92 26 3d 92 bc a3 bc da 9f e6 be
       0.18733987 0.040666867 -0.019987378 -0.45043832
000160 9a aa b8 3d 85 2c ae bc aa 7f 14 bf ad c4 0c 3e
       0.09016915 -0.021261463 -0.580073 0.13746901
000170 60 24 25 3f 03 7d 89 3d 9e 4b 02 3e 22 96 98 3e
       0.6450863 0.06713297 0.12724158 0.29802042
000180 2c 1c 8c 3d e3 cb 83 3d 6a 8b 8f bd c4 7a 5c 3e
       0.06841311 0.06435373 -0.07009013 0.21531206
000190 d0 81 5d bd d4 83 72 bd 72 7b 84 3d 92 77 99 3c
       -0.054078877 -0.059207752 0.06468858 0.018733773
0001a0 c8 e2 0e be bc 0c 88 bf 9c 51 a1 bd c1 8e ac 3d
       -0.13953698 -1.0628886 -0.07876894 0.08425666
0001b0 74 53 a1 3e f4 84 a8 3e 64 49 a2 bc 13 b6 1d bd
       0.31508982 0.32913935 -0.019810386 -0.038503718
0001c0 2d 2a ed 3c 76 f5 e6 bd 1c ba 5f be 00 4b b6 3d
       0.028950775 -0.11277287 -0.21848339 0.08901024
0001d0 d6 37 92 bd 4d a9 2e be 56 3e aa 3d 95 5b 58 3e
       -0.07139556 -0.1705677 0.08312671 0.21128686
0001e0 e4 e2 59 bf 2f 23 34 3f 4b 6e 23 3f 1c a7 4c 3e
       -0.8511183 0.70366186 0.6384017 0.19985622
0001f0 03 53 b5 bd 2f 3f 5e be 10 71 a2 3e 55 78 5e 3d
       -0.08853724 -0.2170379 0.31726885 0.054313976
000200 ad 3e 7e 3d 28 57 aa bd 4e a2 f8 bc d7 e9 37 3d
       0.06207149 -0.08317405 -0.03035083 0.04490074
000210 77 95 4f 3e 08 65 aa 3e 85 54 60 bd ae d5 92 3d
       0.2027186 0.33280206 -0.054768104 0.071696624
000220 e5 84 aa bc 66 f8 5d be 20 6f fa 3d 0d 82 14 be
       -0.020815322 -0.21676788 0.12228227 -0.14502735
000230 6b 70 84 be 71 40 78 be f3 d0 b3 3e 87 c2 8a 3e
       -0.25867018 -0.24243332 0.35120353 0.27101538
000240 83 69 d0 bd b8 11 f5 bd e5 0c d1 bd 12 d9 61 be
       -0.10176375 -0.1196627 -0.102075376 -0.22055462
000250 5a 24 b9 3e 58 db 00 3f 1e 3a ee 3e 06 c3 9e 3c
       0.36160547 0.5033469 0.46528715 0.019380104
000260 eb 4a a0 be d9 7a b0 bf bc a6 df 3f dd 1d e8 3f
       -0.31307158 -1.378749 1.7472758 1.8134114
000270 7b 0e ee 3e 0c e6 8d be 65 b3 9c be 9d ae 18 3e
       0.46495423 -0.27714574 -0.30605617 0.1491036
000280 0c f9 45 3e 97 80 04 be b0 b0 f4 3d 42 0e 92 3e
       0.19333285 -0.12939678 0.11947763 0.28526503
000290 9b da 86 3d 92 84 6e be d2 da 8e be fa d9 5d be
       0.065846644 -0.23292759 -0.27901322 -0.21665183
0002a0 75 18 6e 3e 08 c3 10 be 1f 05 6a 3a ea 36 f9 3e
       0.23251517 -0.14136899 0.00089271547 0.4867471
0002b0 5b b5 a0 bd 21 66 8e be c7 e0 9c bd 22 29 3e be
       -0.07847091 -0.27812293 -0.076600604 -0.18570378
0002c0 5c 08 68 3d 25 87 9f 3e c5 ae b0 bd ba 4b b7 be
       0.056648597 0.31157795 -0.08627085 -0.35799962
0002d0 7f f4 c0 3d 8b 42 1f 3e 4e 72 f5 3c 85 3d a4 3e
       0.09421634 0.15552728 0.029961731 0.32078186
0002e0 86 b0 ce 3e 2d 43 ce 3e 0a 80 22 b7 b7 66 8a 3e
       0.40369052 0.40285626 -9.685764e-06 0.2703149
0002f0 01 5c 70 be 32 0d f7 bf 69 10 77 40 95 76 4e 40
       -0.23472597 -1.9300902 3.8603766 3.2259877
000300 33 e8 41 bf 77 59 a7 3e 95 e0 2d 3e 6e ec 3d 3e
       -0.7574493 0.32685444 0.16980202 0.18547222
000310 66 b8 94 3d 22 3c a7 3d 6a 3d f1 3e 3f b5 14 3f
       0.07261734 0.08165766 0.47117168 0.5808906
000320 51 38 8e 3e 67 32 c3 3c ec c3 b0 3c 9c 25 a3 bc
       0.2777734 0.023827745 0.021577798 -0.019915394
000330 23 84 09 be a0 b8 83 3d 3e 44 61 3d 4d 00 82 3d
       -0.13429312 0.06431699 0.05499672 0.063477136
000340 f9 e0 dd bb 0b e3 8f 3e 19 92 e1 3e 0d 99 f3 be
       -0.0067712036 0.28102908 0.44056776 -0.47577706
000350 e6 07 0f 3c 29 65 ea 3e df b8 8b 3e d2 a8 83 3d
       0.0087299105 0.45780304 0.27289483 0.06428684
000360 10 85 d5 bd 89 99 d3 bc 3d ab 40 be 66 cd b2 bd
       -0.1042577 -0.025830047 -0.18815322 -0.08730583
000370 1c 84 b6 3c b3 c9 84 be de ef 85 3e 03 f7 1c bd
       0.022279792 -0.25935134 0.26159567 -0.038321506
000380 a2 eb b9 bd 5c 9b 9d 3e 75 a2 51 be 1e d7 9f bd
       -0.090781465 0.30782592 -0.20472129 -0.07804702
000390 3c 24 a9 bf 50 de b4 3f 82 39 85 3f 26 e3 bc 3e
       -1.3214183 1.4130344 1.0408175 0.3689205
0003a0 86 e7 4d bd fe ee 2b 3d b6 63 9e 3e ef ee a2 bd
       -0.050269626 0.041975968 0.30935448 -0.07955729
0003b0 2a 36 47 3b 3a f5 8f 3e 46 1c 1e bd 4e 51 9c bd
       0.0030397275 0.2811678 -0.038601182 -0.07632695
0003c0 0e 75 da 3e ac 19 b2 3e 59 c5 27 3f 4f 2e 6f bd
       0.4266743 0.3478521 0.65535504 -0.058393773
0003d0 73 2d 21 3d 17 95 b0 3e 2e d3 14 3e 01 1a 88 be
       0.039349984 0.34488747 0.14533684 -0.2658234
0003e0 47 ad b3 bd bd e4 08 3e 84 f6 a4 bd 02 23 64 3e
       -0.087732844 0.13368507 -0.080548316 0.2227898
0003f0 5f fa 92 3e 07 c7 e1 be ba dd 81 3d 37 80 1b 3f
       0.28706643 -0.44097158 0.06341119 0.60742515

conv2.bias f4 [32]
000000 f5 77 dc 3f 1a 51 10 40 a8 b2 4d be d5 89 15 40
       1.7224108 2.25495 -0.20087683 2.3365376
000010 ee 84 f4 3f aa e7 d8 3f ac 3b d9 3f fb 75 ca 3f
       1.9103067 1.6945698 1.6971335 1.5817255
000020 34 f0 c4 3f 2f 5c 9e 3f 25 5d c5 3f 68 31 15 40
       1.5385804 1.2371882 1.541905 2.3311405
000030 61 ed d5 3f a0 1c ff 3f 22 8a f8 3f a3 5c a7 3f
       1.6713067 1.9930611 1.9417155 1.3075145
000040 32 a2 8b 3f 0e 41 b6 3f 8c a2 a8 3f 9e e4 e2 3f
       1.0908873 1.4238603 1.3174605 1.7726018
000050 9a 95 f0 3f e4 75 aa 3f a8 27 d3 3f ff 6a b5 3f
       1.8795655 1.3317227 1.6496477 1.4173278
000060 43 b6 d6 3f 10 ea c3 3f d5 0a ad 3f e5 8f 9a 3f
       1.6774372 1.5305805 1.3518931 1.2075163
000070 f5 88 06 40 c9 84 df 3f 6f f0 88 3f 7d c3 02 40
       2.1021092 1.7462398 1.0698375 2.0431817

fc1.weight f4 [6, 9]
000000 99 e8 87 be d8 57 fd be 36 cd 56 be f3 f1 7c be
       -0.26544645 -0.49481082 -0.2097672 -0.24701671
000010 42 0c d0 be 5a 6f 03 bd cb bc 45 be 01 aa 33 3d
       -0.40634352 -0.032088615 -0.193103 0.0438633
000020 8d 01 c5 3a bd 25 15 3f 5b 6c 30 be ab e5 35 bd
       0.0015030369 0.5826071 -0.17228834 -0.04440848
000030 d6 ea 0f be 6a a9 81 3b 37 1b 63 be 4a 15 cc 3c
       -0.14054427 0.0039569633 -0.2217835 0.024912495
000040 cc 49 df bd c4 ee 77 bd b6 9e f4 bf 40 46 54 3e
       -0.109027475 -0.06053044 -1.9110935 0.20729923
000050 f3 d9 f8 3e 1c c0 ae 3e dd 5e 9d be a9 2b d2 3e
       0.48603782 0.34130943 -0.30736437 0.41048935
000060 2b b5 2e 3e 33 ac c6 3e ec cd ee 3d 92 db 9a be
       0.17061298 0.38803253 0.1166037 -0.30245644
000070 4e bc 64 bd ff bc 00 bf b2 eb 00 bf 29 0a 75 3d
       -0.055843644 -0.50288385 -0.5035964 0.059824143
000080 83 19 86 be 3e d1 fe bd e2 54 96 bd 6b 8e 9e be
       -0.2619134 -0.124422535 -0.07340409 -0.3096803
000090 df cb f4 bd ba 27 22 be bf c5 92 be b9 6c db be
       -0.11952948 -0.15835467 -0.28666493 -0.42856386
0000a0 c9 3e cb be e0 ad fe 3c c9 47 1e be 3c 6f 72 be
       -0.3969634 0.03108877 -0.15457071 -0.23675245
0000b0 72 a7 42 be 29 3c 03 bf f2 9f 21 be e3 dc 04 3d
       -0.19009188 -0.5126367 -0.1578367 0.032437216
0000c0 6c 90 9c bd ce 42 6f be ce 8b aa be 04 e9 9d be
       -0.07644734 -0.23365328 -0.33309788 -0.3084184
0000d0 03 74 f7 be 69 16 ad 3d
       -0.48330697 0.0845154

fc1.bias f4 [6]
000000 78 0a 94 c1 86 f0 15 c1 63 a9 22 c0 db 49 94 c1
       -18.505112 -9.371222 -2.5415885 -18.536062
000010 2a 42 93 c1 4a d0 94 c1
       -18.407307 -18.601704
