model_dump/20percent_cnn/cnn_v1.pth (torch, 53950 bytes, 6 tensors)

weight f4 [64, 32, 3]
0.44327673 -0.4148815 -0.11818742 -0.21695367 0.05943644 0.2149105 -0.4396375 -0.12993413
-0.1491263 -0.3896626 -0.13331956 -0.06441448 0.57437116 -0.4457929 -0.28890333 -0.5948308
0.018293245 0.30368522 -0.27595276 0.011996134 -0.010362673 -1.0258229 0.22722496 0.2153395
-0.7357374 0.40838638 0.42437986 -0.31895682 0.10293127 0.27064425 4.6163673 -0.4599654
-0.5089931 -0.02333595 0.11385246 0.04248947 1.8633848 0.032357 -0.4713993 -0.55990845
0.015830731 0.12872171 -0.21514182 0.19311583 0.03707822 1.1443613 -0.42998546 -0.29027694
0.24648938 0.041593328 0.16342506 -0.78915715 0.087133676 0.2861603 -0.098569095 -0.043069918
-0.11323623 -0.1430126 -0.019101359 0.042102437 0.08679095 -0.08795828 -0.13452943 -0.5487847
-0.08849486 0.20166416 -1.1498307 0.17545259 0.34066063 -0.3014858 -0.28006062 0.0077856714
0.66802984 -0.08120149 0.010618842 0.30966273 -0.19650838 0.2179905 0.31289643 -0.28242406
-0.24553818 1.6622893 -0.1022758 -0.1876536 -0.4863624 0.3469855 0.14981121 1.050386
-0.15119502 -0.25046226 0.64004046 -0.027623827 -0.014251799 -0.32488182 -0.0031957617 -0.044011537
-0.16161673 -0.18318018 -0.07031975 -0.34133136 -0.052323632 -0.084314734 -0.08608684 -0.15619153
-0.059323367 -0.18408823 -0.17495748 -0.07084778 -0.16957855 -0.058981966 -0.11478012 -0.24640097
0.62049747 0.095071144 0.13234663 0.062392615 -0.1031652 -0.39201614 0.005927556 0.027629446
0.9808087 0.048933424 -0.16672888 0.23980905 -0.0448538 -0.14986958 0.82339925 -0.057618506
-0.0386819 -0.0685632 0.063456535 0.089657724 0.24804859 -0.13177763 -0.13426259 1.0016785
-0.21319817 -0.26358527 0.5361371 0.24022692 -0.023536673 -0.2674778 0.18539003 -0.057731204
-0.198771 0.004453621 0.27071348 0.030569118 -0.09932364 -0.16333896 0.053162735 -0.07884236
-0.30631116 -0.29232025 0.060359396 -0.02518446 6.6813636 -0.60012454 -0.7949685 -0.033302378
-0.11659421 0.10775125 -0.5005048 -0.0027301467 -0.0059042037 -0.01711105 0.27551952 0.04289526
-0.0035831616 -0.18300685 0.11947773 -0.06568465 -0.122287765 0.10507961 0.20564285 -0.0016060537
-0.056947064 0.07060891 -0.16885628 -0.002904948 -0.21029174 -0.17426457 0.24426945 0.38260514
0.059753824 -0.08655234 0.30960384 -0.1440594 -0.046533667 0.9268994 0.042466696 -0.07206972
-0.61175007 -0.09904145 0.20937492 -0.04541396 -0.106513426 0.07249983 -0.28661707 -0.043858606
-0.0026394404 -0.5958081 0.19486888 0.38227087 -0.18368736 0.029554565 0.06229099 0.18259187
0.4235976 -0.07196255 0.13481611 0.14316012 0.06424024 0.512449 -0.43791562 -0.27866462
-1.0016574 0.1066194 0.2892053 -0.5465397 -0.10695511 -0.16139357 -1.5746647 1.053497
0.9410779 -0.70514506 0.21990715 0.2273033 0.81209534 -0.009788174 -0.16497478 -0.5362387
-0.034460925 -0.046164792 -0.34189105 -0.04626816 0.1975794 0.3757534 0.09049796 -0.11468042
0.19234464 -0.20596129 0.18204938 -0.039960794 0.1444685 -0.2487046 -0.41263664 0.30309844
0.19137448 0.51502323 -0.4287796 0.0026775668 -0.35067385 0.21528853 -0.04803138 -0.90300006
00000000: 2bf5 e23e 596b d4be 3f0c f2bd 1a29 5ebe
00000010: a073 733d 8011 5c3e 2b18 e1be 740d 05be
00000020: 91b4 18be db81 c7be ec84 08be bdeb 83bd
00000030: fd09 133f f83e e4be 23eb 93be d546 18bf
00000040: b7db 953c a17c 9b3e ae49 8dbe 6f8b 443c
00000050: 33c8 29bc 2a4e 83bf a9ad 683e f581 5c3e
00000060: 4959 3cbf 0518 d13e 5148 d93e 4f4e a3be
00000070: a1cd d23d e291 8a3e 48b9 9340 9680 ebbe
00000080: 5f4d 02bf 092b bfbc 7b2b e93d 7009 2e3d
00000090: 6583 ee3f c688 043d 405b f1be 2956 0fbf
000000a0: 73af 813c a0cf 033e 234e 5cbe 28c0 453e
000000b0: 55df 173d 6e7a 923f 0e27 dcbe 2e9f 94be
000000c0: b667 7c3e c45d 2a3d e658 273e 3406 4abf
000000d0: 2473 b23d 9a83 923e 98de c9bd 156a 30bd
000000e0: 66e8 e7bd e571 12be 747a 9cbc 9b73 2c3d
000000f0: 74bf b13d 7923 b4bd 15c2 09be 277d 0cbf
00000100: cb3c b5bd 0d81 4e3e a72d 93bf d8a9 333e
00000110: 126b ae3e 595c 9abe 1b64 8fbe f21e ff3b
00000120: 0104 2b3f f74c a6bd a7fa 2d3c 1d8c 9e3e
00000130: 7e39 49be e738 5f3e f633 a03e e399 90be
00000140: 5c6e 7bbe e5c5 d43f fa75 d1bd 4428 40be
00000150: 7e04 f9be 15a8 b13e 1c68 193e 0c73 863f
00000160: ded2 1abe 973c 80be b1d9 233f 5d4b e2bc
00000170: 6180 69bc e956 a6be fc6f 51bb 7145 34bd
00000180: db7e 25be 9693 3bbe cd03 90bd fcc2 aebe
00000190: 4e51 56bd 34ad acbd 4c4e b0bd acf0 1fbe
000001a0: 0ffd 72bd a081 3cbe 0e28 33be a418 91bd
000001b0: 00a6 2dbe 1397 71bd d711 ebbd 8950 7cbe
000001c0: ecd8 1e3f a9b4 c23d e085 073e 668f 7f3d
000001d0: 4748 d3bd 57b6 c8be f23b c23b 2657 e23c
000001e0: 4716 7b3f 6a6e 483d faba 2abe 8190 753e
000001f0: 9eb8 37bd 6977 19be 4bca 523f 6201 6cbd
00000200: e970 1ebd dd6a 8cbd 80f5 813d 789e b73d
00000210: 7300 7e3e b7f0 06be 227c 09be 0037 803f
00000220: 9f50 5abe a6f4 86be 4840 093f 0cfe 753e
00000230: fbcf c0bc daf2 88be e2d6 3d3e 8e77 6cbd
00000240: a08a 4bbe aeef 913b f59a 8a3e 166c fa3c
00000250: 316a cbbd 5442 27be 2bc1 593d 1a78 a1bd
00000260: d1d4 9cbe 00ab 95be 6a3b 773d a44f cebc
00000270: bbcd d540 c3a1 19bf 0e83 4bbf 1368 08bd
00000280: f2c8 eebd b0ac dc3d 1521 00bf 43ec 32bb
00000290: 0d78 c1bb 792c 8cbc e510 8d3e f1b2 2f3d
000002a0: 7ad3 6abb 2666 3bbe bdb0 f43d ac85 86bd
000002b0: 0272 fabd fb33 d73d 0a94 523e 3882 d2ba
000002c0: 5341 69bd 679b 903d a9e8 2cbe f160 3ebb
000002d0: b856 57be 6972 32be c521 7a3e d2e4 c33e
000002e0: 6dc0 743d 5a42 b1bd 6584 9e3e 4f84 13be
000002f0: 169a 3ebd 4749 6d3f 8ff1 2d3d 4a99 93bd
00000300: a79b 1cbf 3ed6 cabd 6166 563e fd03 3abd
00000310: b623 dabd ca7a 943d 79bf 92be 15a5 33bd
00000320: 76fa 2cbb e186 18bf b58b 473e 02b9 c33e
00000330: 8a18 3cbe 6a1c f23c d624 7f3d 5df9 3a3e
00000340: c9e1 d83e 1a61 93bd 3c0d 0a3e 9198 123e
00000350: 6390 833d dc2f 033f 7a36 e0be 21ad 8ebe
00000360: 4f36 80bf 465b da3d b812 943e 07ea 0bbf
00000370: 480b dbbd 5b44 25be 9d8e c9bf fdd8 863f
00000380: 7bea 703f 6384 34bf 572f 613e 32c2 683e
00000390: 7be5 4f3f 945e 20bc 26ef 28be f046 09bf
000003a0: e626 0dbd 4b17 3dbd 580c afbe af83 3dbd
000003b0: 4152 4a3e c062 c03e ff56 b93d 91dd eabd
000003c0: fef5 443e 84e7 52be 276b 3a3e eead 23bd
000003d0: 8def 133e 6bac 7ebe 1c45 d3be b82f 9b3e
000003e0: acf7 433e 90d8 033f 0089 dbbe 1e7a 2f3b
000003f0: 868b b3be 9974 5c3e 8dbc 44bd 032b 67bf

bias f4 [64]
7.0771966 5.83447 3.4064157 5.9165626 6.1584015 6.592724 4.3883715 6.233182
5.455225 5.2320886 6.8293915 6.440429 5.516987 7.3392434 7.96656 6.12395
6.861685 6.8684263 6.6757817 3.9084718 4.0544896 7.6190886 7.455771 7.7349534
5.8903046 4.3694706 7.3036904 6.98924 6.5250664 5.9313245 3.26703 7.4353547
5.2758665 7.27454 7.708902 4.2616906 4.690338 7.5129585 4.3411546 3.979582
5.5814734 6.492468 6.0508814 4.362738 5.982047 6.762046 5.397504 6.564696
5.866345 4.267548 3.9749343 6.4075613 7.444112 5.137652 8.023799 5.95889
6.7855196 6.574913 4.9182305 7.7597904 7.9536953 7.292969 5.9847455 6.2937174
00000000: 6578 e240 fab3 ba40 b702 5a40 7b54 bd40
00000010: a011 c540 98f7 d240 8a6d 8c40 3a76 c740
00000020: 3491 ae40 456d a740 608a da40 ff17 ce40
00000030: 288b b040 15db ea40 0fee fe40 66f7 c340
00000040: ec92 db40 26ca db40 01a0 d540 6724 7a40
00000050: 61be 8140 93cf f340 ad95 ee40 bd84 f740
00000060: 607d bc40 b4d2 8b40 d5b7 e940 dba7 df40
00000070: 58cd d040 69cd bd40 0517 5140 6dee ed40
00000080: e6d3 a840 08c9 e840 53af f640 c55f 8840
00000090: 4017 9640 286a f040 bdea 8a40 79b1 7e40
000000a0: 6e9b b240 4cc2 cf40 d2a0 c140 8d9b 8b40
000000b0: ee6c bf40 ae62 d840 5ab8 ac40 fd11 d240
000000c0: 19b9 bb40 c18f 8840 5365 7e40 be0a cd40
000000d0: 2a36 ee40 a567 a440 7b61 0041 3aaf be40
000000e0: fa22 d940 b065 d240 2562 9d40 3450 f840
000000f0: ac84 fe40 0160 e940 0983 bf40 2266 c940

weight f4 [32, 64, 3]
0.78714246 0.39125237 -0.033526607 -0.120442756 0.13070634 0.15292561 -0.35510847 0.12231984
0.18673971 -0.3741922 0.19817907 0.27889186 -1.0000752 0.31178018 0.3445956 -0.051273763
-0.20050694 -0.11480874 -0.2142563 0.07215358 -0.033449687 0.70277953 -0.22493799 -0.315433
-0.24462417 0.3312238 0.09940385 -0.93353623 0.2216929 0.471041 1.0995878 -0.28238216
-0.16951948 -0.122592084 0.24275096 -0.022908129 -0.27271608 0.16601627 0.2605 0.03938179
0.61756027 0.15503697 0.23702486 0.0712419 -0.17928997 -1.911553 0.41032434 0.64498794
0.61256 -0.015644453 -0.021374697 0.5551095 -0.12898797 -0.16865845 0.68758184 0.13701478
0.16354668 0.06035239 0.060129922 0.13394746 -0.9934093 -0.7564727 -0.27524996 2.57659
-0.78375334 -0.53655434 -0.6387035 0.2707136 0.29274446 -0.5711284 0.053961977 0.17461593
-0.31750906 -0.050696455 -0.110831775 -1.0642599 -0.5591982 0.03028176 -0.027836774 0.06929683
-0.04122393 0.6665997 0.17286775 -0.065151006 -0.25111884 0.25435564 0.16841838 -0.27637362
-0.059409466 -0.051179115 0.014248335 -0.33319837 -0.031011498 0.25843138 -0.14481825 -0.17736836
-0.48125774 0.015228451 0.029841479 -0.47849062 0.12465942 0.12654106 -0.52361757 0.11050039
0.24210687 0.14554419 -0.011160181 0.07845746 0.28018466 -0.1571765 -0.13301124 0.29512486
-0.12156173 -0.030922651 -0.046507053 0.22524677 0.09196572 -0.4180256 -0.18843877 -0.13060008
0.544136 -0.17886086 0.1270202 0.86084646 -0.5224775 -0.35149488 -1.0058217 0.32548204
0.37558925 0.37198183 -0.062234 -0.12976362 -0.016616466 0.112034 -0.051825896 -1.3126671
0.43263516 0.50368226 0.5872565 -0.062538564 0.007494132 -0.6847282 -0.15562677 0.28080723
1.0294794 -0.30511925 -0.18277681 -0.037455145 -0.24811633 -0.14238122 -0.2831129 -0.056223426
0.07923196 -0.38916588 0.40132532 0.11435698 0.258012 -0.12602308 -0.058967926 0.49513748
-0.0053624474 -0.12280997 -0.5256848 -0.26418287 -0.012213586 0.17977807 0.34574267 0.115028016
-0.46325427 -0.24423024 -0.1980476 1.3773364 -0.32342273 -0.23331892 7.466978 -1.6302613
-1.2419337 0.64935255 -0.33379617 -0.387837 -1.196627 0.04732077 0.2850934 2.127119
-0.38920546 -0.20639877 0.2593645 0.3373003 0.051217802 0.66747713 -0.3512118 -0.1570387
-0.44955274 0.12182707 0.124305435 -0.39891067 0.26527798 -0.0041678506 -0.082854114 -0.31153497
0.06581206 -0.15251774 -0.24175636 0.021309566 -0.54039997 -0.080328405 0.12079567 -0.054021083
0.052885476 0.24105819 0.15431498 -0.7029657 -0.21382627 0.6855297 0.08393858 0.03909334
0.28862783 -0.24579166 -0.13322017 0.87805575 -0.39155257 -0.47193307 -0.035139337 0.07996102
0.041993406 -0.76962906 0.54849726 0.13552883 0.025489531 0.10944956 0.17192057 0.08748577
-0.06636657 -0.26453924 0.042264763 0.021178406 0.021424526 -0.29034555 0.31300128 0.3377216
0.29348403 0.042140063 0.034362495 0.547012 0.052071273 -0.13023992 -0.22031914 0.63045263
0.34594283 -0.103894144 -0.23416935 -0.14961986 0.0069345525 -0.032527238 -0.010563419 0.017760742
00000000: 2b82 493f 3b52 c83e 3253 09bd b1aa f6bd
00000010: e2d7 053e 8898 1c3e c7d0 b5be d382 fa3d
00000020: b238 3f3e 1f96 bfbe 74ef 4a3e eaca 8e3e
00000030: 7702 80bf a7a1 9f3e d66e b03e 7004 52bd
00000040: b151 4dbe d820 ebbd 0166 5bbe 42c5 933d
00000050: 8a02 09bd 5ce9 333f 2556 66be 6f80 a1be
00000060: c27e 7abe 2a96 a93e 3f94 cb3d 3bfc 6ebf
00000070: 7703 633e 492c f13e 4bbf 8c3f 6594 90be
00000080: 8496 2dbe 8f11 fbbd b593 783e d4a9 bbbc
00000090: 71a1 8bbe 2b00 2a3e 4260 853e cd4e 213d
000000a0: 6e18 1e3f 03c2 1e3e a5b6 723e 46e7 913d
000000b0: ca97 37be c5ad f4bf 0816 d23e ee1d 253f
000000c0: bbd0 1c3f cc28 80bc fd19 afbc a81b 0e3f
000000d0: 6c15 04be cdb4 2cbe 5d05 303f 9a4d 0c3e
000000e0: c878 273e 1134 773d cb4a 763d 8629 093e
000000f0: 1250 7ebf 32a8 41bf 90ed 8cbe dae6 2440
00000100: 0fa4 48bf a05b 09bf 1382 23bf f99a 8a3e
00000110: 9ae2 953e 7935 12bf 3c07 5d3d 85ce 323e
00000120: 8c90 a2be 16a7 4fbd c5fb e2bd ab39 88bf
00000130: 9d27 0fbf 7411 f83c f209 e4bc 7feb 8d3d
00000140: 6cda 28bd 47a6 2a3f 3e04 313e e46d 85bd
00000150: a692 80be e73a 823e de75 2c3e d880 8dbe
00000160: 5757 73bd 31a1 51bd d971 693c fa98 aabe
00000170: d30b febc 1e51 843e 3c4b 14be 0da0 35be
00000180: 6a67 f6be c180 793c 1e76 f43c b9fc f4be
00000190: 704d ff3d fb93 013e cd0b 06bf 074e e23d
000001a0: ddea 773e 8909 153e 31d9 36bc 4eae a03d
000001b0: 5d74 8f3e e0f2 20be 1934 08be 9b1a 973e
000001c0: 5bf5 f8bd 8051 fdbc 2e7e 3ebd 17a7 663e
000001d0: 8658 bc3d 7407 d6be 18f6 40be 07bc 05be
000001e0: 7f4c 0b3f 4d27 37be 9511 023e 6f60 5c3f
000001f0: 16c1 05bf 23f7 b3be c4be 80bf 95a5 a63e
00000200: 3c4d c03e 6774 be3e 14e9 7ebd c1e0 04be
00000210: 411f 88bc 1572 e53d 6447 54bd 7a05 a8bf
00000220: 5b82 dd3e 52f1 003f 7156 163f 3814 80bd
00000230: 5691 f53b 594a 2fbf a05c 1fbe f7c5 8f3e
00000240: fbc5 833f 9738 9cbe d829 3bbe 916a 19bd
00000250: 3512 7ebe 62cc 11be 2df4 90be 894a 66bd
00000260: 5e44 a23d c040 c7be 837a cd3e fe33 ea3d
00000270: 261a 843e 320c 01be 5a88 71bd a982 fd3e
00000280: 78b7 afbb cb83 fbbd 4793 06bf fa42 87be
00000290: 7e1b 48bc be17 383e 2f05 b13e cf93 eb3d
000002a0: aa2f edbe 7e17 7abe fdcc 4abe 8f4c b03f
000002b0: aa97 a5be 28eb 6ebe 7cf1 ee40 67ac d0bf
000002c0: aff7 9ebf f83b 263f 55e7 aabe 9292 c6be
000002d0: 132b 99bf 6cd3 413d c3f7 913e b822 0840
000002e0: f045 c7be 335a 53be 6ccb 843e a0b2 ac3e
000002f0: c2c9 513d c8df 2a3f 08d2 b3be c1ce 20be
00000300: c72b e6be 7980 f93d d993 fe3d 053e ccbe
00000310: 84d2 873e 7792 88bb 6baf a9bd 8381 9fbe
00000320: 79c8 863d 9c2d 1cbe fb8e 77be 6691 ae3c
00000330: a757 0abf 3883 a4bd b863 f73d 3645 5dbd
00000340: 719e 583d f5d7 763e bf04 1e3e 8ff5 33bf
00000350: 46f5 5abe e07e 2f3f fde7 ab3d 5720 203d
00000360: 07c7 933e cfb0 7bbe de6a 08be 43c8 603f
00000370: 9479 c8be 36a1 f1be 44ee 0fbd 9ac2 a33d
00000380: 4701 2c3d 6906 45bf 516a 0c3f 12c8 0a3e
00000390: 6ccf d03c 1727 e03d f20b 303e bd2b b33d
000003a0: 32eb 87bd b071 87be d11d 2d3d 567e ad3c
000003b0: 7d82 af3c 2ca8 94be b441 a03e d8e9 ac3e
000003c0: 8a43 963e 0f9b 2c3d b0bf 0c3d fa08 0c3f
000003d0: b048 553d 9d5d 05be 579b 61be 5865 213f
000003e0: 6b1f b13e 74c6 d4bd 17ca 6fbe f335 19be
000003f0: 3e3b e33b 483b 05bd 3112 2dbc fa7e 913c

bias f4 [32]
0.6189654 0.27454323 0.5853141 0.45401257 0.58579874 0.7800247 0.35735098 0.53646314
0.69603044 0.48020488 0.7266966 0.5502645 0.42067066 0.7183223 0.3483595 0.45352396
0.2653622 0.5884071 0.39891165 0.5122244 0.5699552 0.5619803 0.44952825 0.6555852
0.40017644 0.49944997 0.5668139 0.49232116 0.46735558 0.5223481 0.45823312 0.43269715
00000000: 8474 1e3f ee90 8c3e 25d7 153f 5674 e83e
00000010: e8f6 153f b3af 473f b5f6 b63e a655 093f
00000020: 0d2f 323f 6add f53e ca08 3a3f 22de 0c3f
00000030: 2562 d73e f8e3 373f 2d5c b23e 4b34 e83e
00000040: 8edd 873e d9a1 163f 263e cc3e 2321 033f
00000050: 96e8 113f f1dd 0f3f 9128 e63e 6fd4 273f
00000060: ede3 cc3e e8b7 ff3e b71a 113f 8511 fc3e
00000070: 3b49 ef3e 9bb8 053f 889d ea3e 7b8a dd3e

weight f4 [6, 9]
-0.6696311 -1.0697201 -0.68607837 -0.97639894 -1.1493483 -0.7963687 -1.059862 -0.85932535
-0.7995022 -0.013413416 0.32295075 0.1689106 -0.0144903865 -0.08101059 0.02333076 -0.030068062
0.00021933249 -0.06454678 0.21321283 -1.0867062 -0.6211671 0.27135578 0.43149176 -0.18393862
0.21673316 -0.0029103057 0.19774456 -1.3843509 -0.98100126 -1.685706 -1.1807675 -1.1592451
-1.0078505 -1.3915315 -1.0111156 -1.2582986 -1.3465642 -1.1073434 -1.7876254 -1.0788664
-1.0834534 -0.87968636 -1.2602133 -0.92834854 -1.167344 -1.2857461 -0.9136973 -1.7431769
-1.1803383 -1.2627589 -1.1150384 -1.2489464 -1.1000992 -1.1534172
00000000: f26c 2bbf 97ec 88bf d5a2 2fbf 48f5 79bf
00000010: d81d 93bf d2de 4bbf 8fa9 87bf bffc 5bbf
00000020: 2dac 4cbf f2c3 5bbc cd59 a53e e6f6 2c3e
00000030: 1669 6dbc e1e8 a5bd 2620 bf3c 4c51 f6bc
00000040: 9efc 6539 1a31 84bd 7754 5a3e 3019 8bbf
00000050: cf04 1fbf 25ef 8a3e 7dec dc3e 685a 3cbe
00000060: 4cef 5d3e d4ba 3ebb 8d7d 4a3e 6932 b1bf
00000070: e622 7bbf 37c5 d7bf 6423 97bf 2562 94bf
00000080: 3f01 81bf b41d b2bf 3c6c 81bf ee0f a1bf
00000090: 375c acbf 6ebd 8dbf e9d0 e4bf 4b18 8abf
000000a0: 9aae 8abf 2033 61bf ab4e a1bf 40a8 6dbf
000000b0: 876b 95bf 5493 a4bf 11e8 69bf 6c20 dfbf
000000c0: 5315 97bf 15a2 a1bf 94b9 8ebf 7add 9fbf
000000d0: 0dd0 8cbf 2da3 93bf

bias f4 [6]
-1.271864 -12.767653 3.532456 -2.0840213 -2.3542392 -2.1715531
00000000: 71cc a2bf 4f48 4cc1 c213 6240 9b60 05c0
00000010: dbab 16c0 bafa 0ac0
