model_dump/1percent_trans/cnn_v1_state.pth (torch, 52410 bytes, 6 tensors)

conv1.weight f4 [64, 32, 3]
0	0x3f0ca69e	0.5494174
1	0xbe6182ab	-0.22022502
2	0x3cd18768	0.025577262
3	0x3e769709	0.24081053
4	0xbdd9effc	-0.106414765
5	0x3db11042	0.08645679
6	0x3ec2278d	0.379208
7	0xbef0b35e	-0.47011846
8	0xbeb2f588	-0.3495295
9	0xbc682d8b	-0.014171015
10	0x3e17f700	0.14840317
11	0x3c792574	0.015206683
12	0xbe2b5500	-0.16731644
13	0x3e1a7e2f	0.15087198
14	0x3eae7b66	0.3407852
15	0x3e3b94e2	0.18318513
16	0xbd2c8a66	-0.042124175
17	0xbe7e2561	-0.24818946
18	0xbeaece21	-0.3414164
19	0x3df51bf4	0.11968222
20	0x3eb6af5b	0.3568066
21	0x3f0616df	0.5237865
22	0xbf08b40a	-0.5339972
23	0xbf118db0	-0.5685682
24	0xbd6c629e	-0.057711236
25	0xbe730ca6	-0.23735294
26	0xbe51ef6d	-0.2050149
27	0x3e26bf77	0.16283976
28	0xbe760074	-0.2402361
29	0x3d8d3d9e	0.06896518
30	0x3eb06256	0.34450024
31	0x3d332139	0.043732855
32	0x3ec9e796	0.394345
33	0x3ee02329	0.43776825
34	0xbf2f2ac7	-0.6842465
35	0xbed9c3c4	-0.4253217
36	0xbec625c9	-0.38700703
37	0x3dd30393	0.10303416
38	0xbebb0cab	-0.36533102
39	0x3e3576fd	0.17721172
40	0x3eea9f75	0.4582478
41	0x3d051412	0.032489844
42	0x3e8f12dd	0.2794408
43	0x3e0be78d	0.13662548
44	0xbe148d0c	-0.1450693
45	0x3e948e9b	0.2901505
46	0x3efe7564	0.49698937
47	0x3d9c294d	0.07625065
48	0x3f0fe014	0.5620129
49	0xbe4199e2	-0.18906358
50	0x3e4f3f5a	0.2023901
51	0xbbb7698a	-0.005597298
52	0x3e30a278	0.17249477
53	0x3f1d335d	0.614065
54	0xbf194296	-0.5986723
55	0x3daa746b	0.08322986
56	0x3e15be55	0.14623387
57	0xbde71d58	-0.11284894
58	0xbbf19b0b	-0.007373219
59	0x3ea065ec	0.3132776
60	0x3d314fee	0.043289118
61	0xbd38c1a1	-0.045106534
62	0xbed9399e	-0.4242677
63	0x3e79a5e7	0.24379693
64	0xbe49efdf	-0.1972041
65	0x3eb01302	0.34389502
66	0x3f1cc405	0.612366
67	0x3eebc2bd	0.4604701
68	0xbe2a7288	-0.16645253
69	0x3ee60924	0.4492885
70	0x3e9bd391	0.3043485
71	0x3e600088	0.21875203
72	0x3f4b83d1	0.7949801
73	0x3cbd94ce	0.023142245
74	0x3f11066a	0.5665041
75	0x3f405bb3	0.7513992
76	0xbf0d20a6	-0.5512794
77	0xbbcee978	-0.0063144527
78	0x3e0a4a30	0.13504863
79	0xbeaf5070	-0.34241056
80	0xbe719673	-0.23592548
81	0xbe9d9f1e	-0.3078546
82	0xbed3882f	-0.41314837
83	0x3ebde1d4	0.37086356
84	0xbc72281c	-0.014780071
85	0x3d460120	0.048340917
86	0x3d230fd1	0.039810006
87	0xbf10b83f	-0.5653114
88	0xbee42ae0	-0.4456396
89	0xbe63d66b	-0.22249763
90	0xbed44353	-0.41457614
91	0xbd41c90e	-0.04731088
92	0x3d8bcd20	0.06826234
93	0xbe73a57d	-0.23793598
94	0x3dcb360f	0.0992242
95	0xbe5e0cf8	-0.21684635
96	0xbd0d2d00	-0.034466743
97	0x3e1e23dd	0.15443368
98	0xbed2951c	-0.41129386
99	0x3e62c674	0.22146016
100	0x3daf2ebc	0.08553836
101	0xbd2efda8	-0.042722374
102	0x3ebb19ca	0.36543113
103	0x3f0d75d8	0.5525794
104	0xbe8f4eda	-0.27989846
105	0x3e83b41b	0.25723347
106	0x3e5aa67b	0.2135257
107	0x3e2a660f	0.16640495
108	0x3f00ee6a	0.5036379
109	0x3d8fb5a1	0.07017065
110	0x3db4cbd0	0.08827937
111	0x3ed097e0	0.4074087
112	0xbf36c8ed	-0.7140034
113	0xbe75a923	-0.23990302
114	0x3af1c835	0.0018446507
115	0xbd0abcbc	-0.033871397
116	0xbcb59927	-0.022167755
117	0xbd60ac39	-0.054851744
118	0x3e2bf05b	0.16790907
119	0xbe2f7599	-0.17134704
120	0x3b3d47a0	0.0028881803
121	0x3f1e6523	0.6187307
122	0x3d1b0595	0.03784712
123	0x3bd23e92	0.0064161504
124	0x3e75c55a	0.24001065
125	0x3e7573aa	0.23969904
126	0x3e849238	0.25892806
127	0x3e3231b7	0.17401777
128	0xbc8b4bba	-0.017003883
129	0x3db0fef1	0.08642376
130	0x3cb4a121	0.022049488
131	0x3eaa89e4	0.33308327
132	0x3e45357c	0.19258684
133	0xbf4d6221	-0.8022786
134	0xbf0a3d53	-0.53999823
135	0x3f22c8ab	0.63587445
136	0xbeb737d1	-0.35784772
137	0x3e2ab673	0.16671161
138	0xbc61e664	-0.01378784
139	0x3f13d6b9	0.57749516
140	0x3e2996a3	0.1656137
141	0xbdb39d55	-0.08770243
142	0xbe42b5eb	-0.19014709
143	0x3e5bfdf5	0.21483596
144	0xbd462e17	-0.0483838
145	0xbdec63b2	-0.11542453
146	0x3e8d65b4	0.27616656
147	0xbe937bf7	-0.28805515
148	0xbd1a8979	-0.03772876
149	0xbe265abd	-0.16245551
150	0x3e8abbd5	0.2709643
151	0x3ede203e	0.43383974
152	0x3ef1f764	0.47259057
153	0xbe10d1f7	-0.14142595
154	0x3e3e00e1	0.18555023
155	0x3d577f31	0.052611534
156	0xbd9ca075	-0.07647792
157	0x3ef35a1f	0.47529694
158	0x3e939709	0.28826168
159	0x3ebb694a	0.36603767
160	0xbee7f0f2	-0.45301014
161	0xbf2afb7b	-0.6678998
162	0x3e4afe6f	0.19823621
163	0x3f1bcf35	0.6086305
164	0xbe6b8042	-0.22998145
165	0x3e8bfdab	0.2734197
166	0xbcad0ced	-0.021124328
167	0xbf030b47	-0.5118908
168	0x3e34a106	0.1763955
169	0xbdb91d8d	-0.090388395
170	0xbe87c10b	-0.26514468
171	0xbec6e0bf	-0.38843343
172	0x3d611324	0.054949895
173	0x3ddb4cc8	0.10708004
174	0x3d4ed47a	0.050495602
175	0xbe61c4d6	-0.22047743
176	0xbe97364d	-0.29533616
177	0x3eb724b9	0.35770205
178	0xbf08f948	-0.53505373
179	0xbee4c9e8	-0.44685292
180	0x3dd1f325	0.10251454
181	0xbefd929d	-0.4952592
182	0x3ec14d1d	0.37754145
183	0xbe5b7b74	-0.21433812
184	0xbf0bbbf3	-0.5458366
185	0xbe83adb3	-0.2571846
186	0x3e97b2cc	0.296286
187	0x3e18788c	0.14889735
188	0x3ec9992e	0.3937468
189	0xbe8e26ff	-0.27764127
190	0xbe0a9d67	-0.13536607
191	0xbe8f647a	-0.28006345
192	0xbd76c94e	-0.060250573
193	0xbe2f7b32	-0.17136839
194	0x3e938300	0.28810883
195	0x3e0ba887	0.13638507
196	0xbd495cb9	-0.049160693
197	0xbdfd68d7	-0.12373512
198	0xbd259be9	-0.04043189
199	0xbda38d80	-0.07985973
200	0x3d8381f2	0.064212695
201	0xbea3390a	-0.31879455
202	0xbd0d9557	-0.03456625
203	0xbd84b199	-0.064791866
204	0x3ebb8106	0.36621875
205	0xbeb4330f	-0.35195205
206	0xbe877536	-0.26456612
207	0xbda79101	-0.08181954
208	0xbefa0b88	-0.48836923
209	0x3e00e1fe	0.12586209
210	0xbee4bbdb	-0.44674572
211	0x3d925cd0	0.07146609
212	0xbdbd3762	-0.09239079
213	0xbe16fd97	-0.14745174
214	0xbe10de11	-0.14147212
215	0x3d21f2fd	0.039538372
216	0xbf050f87	-0.5197682
217	0xbe18f9ab	-0.14938991
218	0x3e5de4c2	0.21669295
219	0xbe88a7a2	-0.26690394
220	0x3e5be013	0.21472196
221	0x3d7235c3	0.059133302
222	0xbd03b03b	-0.03215049
223	0x3e22c145	0.15894039
224	0x3e729168	0.2368828
225	0xbda587e6	-0.08082561
226	0x3e9bd37c	0.30434787
227	0x3dce6aaa	0.10078938
228	0xbe85ebd6	-0.2615649
229	0xbdbfa2ea	-0.09357245
230	0x3d946ae6	0.07246952
231	0xbe3c7baf	-0.18406557
232	0x3ea221fa	0.31666547
233	0x3e425019	0.18975867
234	0x405c5956	3.4429526
235	0xc026558d	-2.5989716
236	0xbeecb90b	-0.46234927
237	0x3eb96f93	0.36217937
238	0x3f278731	0.6544066
239	0x3f00aa7a	0.50260127
240	0xbe8a9757	-0.27068588
241	0x3f06df35	0.52684337
242	0x3ed5e945	0.41779533
243	0xbcc28d84	-0.02374912
244	0x3e87b9df	0.26508996
245	0x3e87033c	0.26369655
246	0xbdf11e54	-0.11773363
247	0xbf18ff5b	-0.5976464
248	0xbd86d342	-0.06583263
249	0xbbe7d0da	-0.0070744576
250	0x3d891a77	0.06694501
251	0x3e0e5b56	0.1390203
252	0x3c0cc105	0.008590941
253	0x3c9d957c	0.019236319
254	0x3db53ff6	0.0885009
255	0x3defe6ad	0.1171392

conv1.bias f4 [64]
0	0x3f57290c	0.8404701
1	0xbfecb440	-1.8492508
2	0x3fa55ae9	1.2918369
3	0x40196b1e	2.397163
4	0x3f87729b	1.058185
5	0x4047ac14	3.1198778
6	0x400e8491	2.2268412
7	0x4058a847	3.3852708
8	0x40127cb5	2.2888615
9	0x3f946def	1.1596049
10	0xbfc3fba1	-1.5311166
11	0x3dbf8c72	0.0935296
12	0x404d6837	3.2094858
13	0x404e31cd	3.2217896
14	0xbead1aba	-0.33809453
15	0x405f5bb7	3.4899728
16	0xbe87e7b1	-0.26543954
17	0x405b3505	3.425111
18	0x40237e69	2.5545905
19	0x403ebcac	2.9802656
20	0xbebfc4bf	-0.37454793
21	0x4025880e	2.586429
22	0xbfe0bcb2	-1.7557585
23	0x4028fa8d	2.6402924
24	0x40118648	2.2738209
25	0x3e9bd564	0.30436242
26	0x404cef42	3.2021031
27	0x4004787e	2.0698543
28	0x40777fac	3.8671675
29	0xbe230593	-0.15920095
30	0x3fe42f3f	1.7826918
31	0x404173b9	3.0226882
32	0x40146e05	2.319215
33	0xbfc01406	-1.5006111
34	0x3e85402f	0.2602553
35	0x4042cc2b	3.0437114
36	0x3f2a2ffb	0.6647946
37	0x3f67775b	0.90416497
38	0x403dcf1b	2.9657657
39	0x3fbb9763	1.4655575
40	0x4050eaa3	3.264321
41	0x404a7ff4	3.1640596
42	0x403d9f54	2.9628496
43	0x3eb31996	0.34980458
44	0x3fa132be	1.259361
45	0x40356913	2.8345382
46	0x3e9905f9	0.2988737
47	0x3fe1030b	1.7579054
48	0x406acefa	3.6688828
49	0x405d53e1	3.4582446
50	0x4037c289	2.8712485
51	0x4010be3f	2.2616117
52	0x403f85e6	2.9925475
53	0x407c26e1	3.939873
54	0x4050f708	3.2650776
55	0x4010b133	2.2608154
56	0x3f57c9cc	0.8429229
57	0x40037e8e	2.0545993
58	0xbe31e54e	-0.17372629
59	0x3f8b5d62	1.0887873
60	0x40524c07	3.2858903
61	0x4048c9a1	3.1373065
62	0xbfde4eb1	-1.7367765
63	0x3ffdee25	1.9838301

conv2.weight f4 [32, 64, 3]
0	0xbeae629b	-0.34059605
1	0x3e8321fe	0.2561187
2	0x3dd15656	0.102215454
3	0x3db5b2ba	0.0887198
4	0x3eb7eea7	0.35924265
5	0xbe83093e	-0.2559299
6	0xbc932cab	-0.017965635
7	0xbef8e3fa	-0.48611432
8	0xbd91dc1f	-0.07122063
9	0xbe2f9c68	-0.17149508
10	0xbdce95d4	-0.10087171
11	0xbe59f1b9	-0.21283616
12	0xbe1286f7	-0.14309298
13	0x3dfe5c5b	0.12419959
14	0x3e97bb8e	0.2963528
15	0xbd0cdaaf	-0.03438824
16	0xbdac2e1a	-0.08407231
17	0x3d5d2645	0.053991575
18	0xbd17ea72	-0.03708882
19	0x3d6c94b2	0.057758994
20	0xbc9b470d	-0.018954778
21	0xbe6585dc	-0.22414345
22	0x3d28d359	0.04121718
23	0xbc338a95	-0.0109583335
24	0x3dd30d4f	0.10305273
25	0x3d5980d2	0.05310137
26	0x3c8aefb3	0.01696
27	0x3aa503d6	0.0012589644
28	0xbe8a3227	-0.26991388
29	0xbe350cfb	-0.17680733
30	0xbe2119c0	-0.15732479
31	0x3d83b6f0	0.06431377
32	0xbe6ae3ee	-0.22938511
33	0xbd19bb4f	-0.037532147
34	0xbe935d25	-0.28782
35	0xbe8c6ac3	-0.27425203
36	0xbe45d544	-0.19319636
37	0x3d19544f	0.03743392
38	0x3d646df9	0.05576894
39	0xbfef344f	-1.8687838
40	0x410e7ffc	8.906246
41	0x40885b96	4.26118
42	0x3e82f673	0.2557865
43	0x3ca17615	0.019709626
44	0x3e186082	0.14880565
45	0xbd88d351	-0.066809304
46	0x3cbfffb6	0.023437362
47	0xbd776794	-0.060401514
48	0xbd90b8ac	-0.07066473
49	0x3da0f9f4	0.07860175
50	0x3dfd95ef	0.12382113
51	0x3dab8df9	0.083766885
52	0x3d2a7680	0.041616917
53	0x3ce4478b	0.027866146
54	0xbe0cc4d8	-0.13746965
55	0xbe223125	-0.1583906
56	0x3d7029b8	0.058633536
57	0x3dd450d5	0.1036698
58	0xbe64c4b0	-0.22340655
59	0xbe037f7e	-0.12841603
60	0xbddafe27	-0.10693007
61	0xbe4d8722	-0.2007108
62	0x3ea8c51f	0.3296289
63	0x3d8e1631	0.069378264
64	0x3e58f2de	0.21186396
65	0xbd8c44d1	-0.06849063
66	0x3d1ee2d4	0.03879054
67	0x3b6157da	0.003438464
68	0xbeafd06b	-0.34338698
69	0x3d6dccb3	0.058056545
70	0xbd8976fd	-0.06712148
71	0xbeb8a158	-0.36060596
72	0x3e09453a	0.13405314
73	0xbdbcbaa5	-0.09215287
74	0xbe597c8a	-0.21238914
75	0x3e15e59e	0.14638373
76	0xbd9b916e	-0.07596098
77	0xbd5fb783	-0.05461837
78	0xbc85c676	-0.016329985
79	0x3dba4d3d	0.09096763
80	0xbdead0df	-0.1146562
81	0x3e3635b2	0.1779392
82	0x3ca762c1	0.020432832
83	0x3e7b09be	0.24515435
84	0xbe4a3a7d	-0.19748874
85	0x3be5d40d	0.007013804
86	0x3d9d3fa5	0.07678155
87	0xbe9c3eb9	-0.30516604
88	0xbc94e74d	-0.018176699
89	0x3c73d500	0.014882326
90	0x3dc1662f	0.09443318
91	0xbcd0097e	-0.025395151
92	0xbb85bc1e	-0.004081263
93	0xbbe30f97	-0.0069293487
94	0xbe803921	-0.25043586
95	0xbe357982	-0.17722133
96	0xbe5e9e11	-0.21739985
97	0x3ecf9c76	0.40549058
98	0x3efd211f	0.49439332
99	0x3ed8068d	0.42192498
100	0xbd6d9005	-0.057998676
101	0xbef97f69	-0.4873002
102	0xbf1e25d4	-0.6177647
103	0x3ea255d0	0.31706095
104	0x3ef9ee0c	0.48814428
105	0xbd1289e2	-0.035776027
106	0x3d60348b	0.05473761
107	0xba929526	-0.0011183366
108	0xbeb5fa3c	-0.35542476
109	0xbe2ed886	-0.17074785
110	0x3dd38c5d	0.103295065
111	0xbecfa118	-0.40552592
112	0x3db3b17c	0.08774087
113	0x3e9d907d	0.30774298
114	0x3dc67c65	0.09691695
115	0xbe281617	-0.16414677
116	0x3cbee749	0.023303645
117	0x3cd153a7	0.025552584
118	0xbeb3cc13	-0.35116634
119	0xbd227a85	-0.039667625
120	0x3d22dbdb	0.03976045
121	0x3e7f23a7	0.24915944
122	0xbc74b183	-0.0149349
123	0xbdf11fc5	-0.11773638
124	0x3e19c9c1	0.1501837
125	0x3d92613e	0.07147454
126	0xbdaf8adc	-0.08571407
127	0xbe0ed7c7	-0.139495
128	0x3d9b8afd	0.07594869
129	0x3e8bb1a6	0.27283973
130	0x3dd8f7b7	0.10594123
131	0xbec9c643	-0.39409074
132	0x3e8e2f27	0.2777035
133	0x3e0e143b	0.13874905
134	0xbd16c765	-0.03681125
135	0x3dae48f3	0.08510008
136	0x3e37424b	0.17896383
137	0xbd75b228	-0.059984356
138	0x3d178afb	0.036997776
139	0xbcac54b6	-0.021036487
140	0xbd83dea9	-0.064389534
141	0x3dfd517b	0.12369057
142	0xbe4b6ce6	-0.1986576
143	0xbd8b94e1	-0.06815506
144	0xbe499bbb	-0.19688313
145	0x3daa0985	0.08302597
146	0x3dac4076	0.084107324
147	0x3d90dbf5	0.070732035
148	0xbd131e6e	-0.035917692
149	0xbdc041fe	-0.09387587
150	0xbdcb768e	-0.09934722
151	0xbe5f20a7	-0.217898
152	0x3d239731	0.03993911
153	0x3e10af7f	0.14129446
154	0x3dec71ca	0.11545141
155	0xbbef6eb1	-0.0073068966
156	0xb9ec2f2c	-0.00045048574
157	0x3e4eaf11	0.2018397
158	0xbe367907	-0.17819606
159	0xbdbf3e55	-0.09338061
160	0xbaa7b2b9	-0.0012794352
161	0xbd402e41	-0.04691911
162	0xbc18c8a3	-0.009325179
163	0xbdaed388	-0.0853644
164	0x3d9e5ac4	0.07732156
165	0x3d90b85e	0.07066415
166	0xbe737c93	-0.2377799
167	0xbdab15e1	-0.083537824
168	0xbd87ca88	-0.06630427
169	0x3e0296fb	0.12752907
170	0x3e52bb41	0.20579244
171	0x3de149c9	0.110004015
172	0xbd3cd953	-0.046105694
173	0xbc75c65f	-0.015000909
174	0x3e6a03c5	0.22853
175	0xbdfde171	-0.12396515
176	0xbe614595	-0.219992
177	0xbed019df	-0.40644738
178	0xbe03c600	-0.128685
179	0xbd84cbc7	-0.0648418
180	0x3e067cdf	0.13133572
181	0xbe20b245	-0.15693004
182	0xbcdae5b3	-0.026720857
183	0xbe04a789	-0.12954535
184	0xbd74676a	-0.059668936
185	0xbbc809b2	-0.0061046714
186	0x3c820256	0.015870254
187	0x3c369810	0.011144653
188	0x3e06928b	0.13141839
189	0x3dc158c4	0.09440759
190	0x3e4a1c29	0.19737305
191	0x3e71f820	0.23629808
192	0xbdc9db64	-0.098562986
193	0xbda13d62	-0.07873036
194	0xbe9d2451	-0.3069177
195	0x3eca9cae	0.39572662
196	0xbe2c571f	-0.16830109
197	0xbc993c7b	-0.018705597
198	0x3ceb5459	0.028726744
199	0xbd821626	-0.06351881
200	0x3d0cefed	0.0344085
201	0x3ddf9f93	0.10919108
202	0xbdca928c	-0.09891233
203	0xbe05d051	-0.13067748
204	0x3e3b9457	0.18318306
205	0xbee65eff	-0.4499435
206	0xbc64e8d6	-0.013971528
207	0x3e4bbd91	0.19896533
208	0xbdf617c0	-0.12016249
209	0xbc9b9513	-0.018991983
210	0x3e066442	0.13124183
211	0xbdfe8467	-0.124275975
212	0xbdc8d88d	-0.09806929
213	0xbfb5c731	-1.4201413
214	0x41136fc2	9.214785
215	0x40844823	4.1338058
216	0x3e818303	0.25295267
217	0xbe7a0a42	-0.24417976
218	0xbdaa65bb	-0.08320185
219	0x3e035b2e	0.12827751
220	0x3ec19f82	0.37817007
221	0xbd123b3c	-0.03570102
222	0xbee04828	-0.4380505
223	0x3e927c41	0.28610423
224	0x3db372f6	0.087621614
225	0xbee87b94	-0.45406783
226	0x3cd327bb	0.02577578
227	0xbda8df9a	-0.082457736
228	0x3dd91aaa	0.10600789
229	0x3c82c5e4	0.015963502
230	0xbd9bc2c1	-0.07605506
231	0x3e28b3b3	0.164748
232	0x3d7ea5f8	0.06217
233	0xbe4f62fa	-0.202526
234	0x3f08bb62	0.53410923
235	0x3c1e088f	0.009645595
236	0xbe96a918	-0.29425883
237	0x3bff804c	0.0077972766
238	0x3d92ba7f	0.071644776
239	0xbe071014	-0.13189727
240	0xbde0e117	-0.109804325
241	0xbea86d3d	-0.32895842
242	0xbd134432	-0.035953708
243	0x39d43108	0.00040472322
244	0x3e288c14	0.16459686
245	0xbe265058	-0.16241586
246	0x3cb55093	0.022133147
247	0x3ef02879	0.46905878
248	0x3d54c2ce	0.051943593
249	0xbe4e88e2	-0.20169404
250	0xbd271743	-0.04079367
251	0x3d0b73c0	0.034045935
252	0x3e920910	0.2852254
253	0x3b937019	0.004499447
254	0x3e0799db	0.13242285
255	0x3db7b51e	0.08970092

conv2.bias f4 [32]
0	0x3f4ce5d5	0.80038196
1	0x3f6d2c7b	0.92645997
2	0x3ec1c5ce	0.37846226
3	0x3f4a06a9	0.7891641
4	0x3f14981b	0.58044595
5	0x3f5c09c7	0.8595242
6	0x3f2dac95	0.67841464
7	0x3eedd740	0.46453285
8	0x3f289cca	0.6586424
9	0x3f025762	0.50914586
10	0x3e952da2	0.29136378
11	0x3ed6163d	0.4181384
12	0x3f54ad9c	0.83077407
13	0x3f14a875	0.58069545
14	0x3f466c0e	0.7750863
15	0x3f4669d8	0.77505255
16	0x3f239958	0.6390586
17	0x3f1a677a	0.6031414
18	0x3f31cf15	0.6945661
19	0x3f2dd67d	0.6790541
20	0x3f197fbd	0.5996054
21	0x3f024070	0.50879574
22	0x3f4952b7	0.7864184
23	0x3e84f009	0.25964382
24	0x3f473bcb	0.7782561
25	0x3f288ad6	0.65836847
26	0x3f754bd2	0.9581882
27	0x3f49e4cf	0.7886476
28	0x3f4d2f73	0.80150527
29	0x3f570fef	0.8400869
30	0x3f35197e	0.70742023
31	0x3eca1d34	0.39475405

fc1.weight f4 [6, 9]
0	0xbebb82af	-0.3662314
1	0xbef3db5e	-0.476283
2	0xbf1b93fa	-0.6077267
3	0xbe2fb309	-0.1715814
4	0xbefa7333	-0.48916015
5	0xbde5b87c	-0.11216828
6	0xbed60b04	-0.4180528
7	0xbd36e8d5	-0.04465564
8	0xbeab05ea	-0.3340295
9	0x3ead1b7a	0.33810025
10	0x3c5a584b	0.013326715
11	0xbcb47f98	-0.022033498
12	0xbd83de56	-0.064388916
13	0x3d8c6e22	0.06856944
14	0xbd5d222d	-0.05398767
15	0x3be03c6b	0.00684314
16	0xbd70866d	-0.05872195
17	0xbb40914e	-0.0029383483
18	0xbfe3e922	-1.7805521
19	0xbed5bcea	-0.41745692
20	0x3f2d78f2	0.6776267
21	0x3e5bbc5a	0.21458569
22	0xbe89eda0	-0.26939106
23	0x3eb9b089	0.36267498
24	0x3c72e4a4	0.01482502
25	0x3ea1f311	0.31630757
26	0x3c1fab97	0.0097455
27	0xbf0cdba6	-0.55022657
28	0xbebe736f	-0.37197444
29	0xbec6a003	-0.38793954
30	0xbe84ed47	-0.25962278
31	0xbe6f2cf7	-0.23356996
32	0xbeea71a2	-0.4578982
33	0xbee23e95	-0.4418837
34	0xbdfc523d	-0.12320373
35	0xbea1728f	-0.31532714
36	0xbf10ee56	-0.5661367
37	0xbf05e5f5	-0.5230401
38	0xbeb50ebc	-0.35362804
39	0xbe29ea90	-0.16593385
40	0xbec4f1b3	-0.38465652
41	0xbf0fa3a8	-0.56109095
42	0xbe34dd98	-0.17662656
43	0xbf00426a	-0.5010134
44	0xbe562c9e	-0.20915458
45	0xbef8d0e8	-0.48596883
46	0xbf135b51	-0.5756121
47	0xbeb84036	-0.3598649
48	0xbeba2263	-0.3635436
49	0xbed5c335	-0.41750494
50	0xbe3fb003	-0.18719487
51	0xbecf5e88	-0.4050181
52	0xbebf585d	-0.37372103
53	0xbe9ddc96	-0.30832356

fc1.bias f4 [6]
0	0xbe23b837	-0.15988241
1	0xc174de14	-15.304218
2	0x3fe979e1	1.824032
3	0xbd809fec	-0.06280503
4	0xbe44bd15	-0.19212754
5	0xbc48890e	-0.012239708
